…
I1129 09:34:39.373718  3116 upgrade_proto.cpp:77] Attempting to upgrade batch norm layers using deprecated params: models/ucar_driveless/ResNet-101/rfcn_end2end/train_agnostic_ohem.prototxt
I1129 09:34:39.373733  3116 upgrade_proto.cpp:80] Successfully upgraded batch norm layers using deprecated params.
I1129 09:34:39.375380  3116 net.cpp:58] Initializing net from parameters: 
name: "ResNet-101"
state {
  phase: TRAIN
}
layer {
  name: "input-data"
  type: "Python"
  top: "data"
  top: "im_info"
  top: "gt_boxes"
  python_param {
    module: "roi_data_layer.layer"
    layer: "RoIDataLayer"
    param_str: "\'num_classes\': 5"
  }
}
layer {
  name: "conv1"
  type: "Convolution"
  bottom: "data"
  top: "conv1"
  param {
    lr_mult: 0
  }
  convolution_param {
    num_output: 64
    bias_term: false
    pad: 3
    kernel_size: 7
    stride: 2
  }
}
layer {
  name: "bn_conv1"
  type: "BatchNorm"
  bottom: "conv1"
  top: "conv1"
  batch_norm_param {
    use_global_stats: true
  }
}
layer {
  name: "scale_conv1"
  type: "Scale"
  bottom: "conv1"
  top: "conv1"
  param {
    lr_mult: 0
    decay_mult: 0
  }
  param {
    lr_mult: 0
    decay_mult: 0
  }
  scale_param {
    bias_term: true
  }
}
layer {
  name: "conv1_relu"
  type: "ReLU"
  bottom: "conv1"
  top: "conv1"
}
layer {
  name: "pool1"
  type: "Pooling"
  bottom: "conv1"
  top: "pool1"
  pooling_param {
    pool: MAX
    kernel_size: 3
    stride: 2
  }
}
layer {
  name: "res2a_branch1"
  type: "Convolution"
  bottom: "pool1"
  top: "res2a_branch1"
  param {
    lr_mult: 0
  }
  convolution_param {
    num_output: 256
    bias_term: false
    pad: 0
    kernel_size: 1
    stride: 1
  }
}
layer {
  name: "bn2a_branch1"
  type: "BatchNorm"
  bottom: "res2a_branch1"
  top: "res2a_branch1"
  batch_norm_param {
    use_global_stats: true
  }
}
layer {
  name: "scale2a_branch1"
  type: "Scale"
  bottom: "res2a_branch1"
  top: "res2a_branch1"
  param {
    lr_mult: 0
    decay_mult: 0
  }
  param {
    lr_mult: 0
    decay_mult: 0
  }
  scale_param {
    bias_term: true
  }
}
layer {
  name: "res2a_branch2a"
  type: "Convolution"
  bottom: "pool1"
  top: "res2a_branch2a"
  param {
    lr_mult: 0
  }
  convolution_param {
    num_output: 64
    bias_term: false
    pad: 0
    kernel_size: 1
    stride: 1
  }
}
layer {
  name: "bn2a_branch2a"
  type: "BatchNorm"
  bottom: "res2a_branch2a"
  top: "res2a_branch2a"
  batch_norm_param {
    use_global_stats: true
  }
}
layer {
  name: "scale2a_branch2a"
  type: "Scale"
  bottom: "res2a_branch2a"
  top: "res2a_branch2a"
  param {
    lr_mult: 0
    decay_mult: 0
  }
  param {
    lr_mult: 0
    decay_mult: 0
  }
  scale_param {
    bias_term: true
  }
}
layer {
  name: "res2a_branch2a_relu"
  type: "ReLU"
  bottom: "res2a_branch2a"
  top: "res2a_branch2a"
}
layer {
  name: "res2a_branch2b"
  type: "Convolution"
  bottom: "res2a_branch2a"
  top: "res2a_branch2b"
  param {
    lr_mult: 0
  }
  convolution_param {
    num_output: 64
    bias_term: false
    pad: 1
    kernel_size: 3
    stride: 1
  }
}
layer {
  name: "bn2a_branch2b"
  type: "BatchNorm"
  bottom: "res2a_branch2b"
  top: "res2a_branch2b"
  batch_norm_param {
    use_global_stats: true
  }
}
layer {
  name: "scale2a_branch2b"
  type: "Scale"
  bottom: "res2a_branch2b"
  top: "res2a_branch2b"
  param {
    lr_mult: 0
    decay_mult: 0
  }
  param {
    lr_mult: 0
    decay_mult: 0
  }
  scale_param {
    bias_term: true
  }
}
layer {
  name: "res2a_branch2b_relu"
  type: "ReLU"
  bottom: "res2a_branch2b"
  top: "res2a_branch2b"
}
layer {
  name: "res2a_branch2c"
  type: "Convolution"
  bottom: "res2a_branch2b"
  top: "res2a_branch2c"
  param {
    lr_mult: 0
  }
  convolution_param {
    num_output: 256
    bias_term: false
    pad: 0
    kernel_size: 1
    stride: 1
  }
}
layer {
  name: "bn2a_branch2c"
  type: "BatchNorm"
  bottom: "res2a_branch2c"
  top: "res2a_branch2c"
  batch_norm_param {
    use_global_stats: true
  }
}
layer {
  name: "scale2a_branch2c"
  type: "Scale"
  bottom: "res2a_branch2c"
  top: "res2a_branch2c"
  param {
    lr_mult: 0
    decay_mult: 0
  }
  param {
    lr_mult: 0
    decay_mult: 0
  }
  scale_param {
    bias_term: true
  }
}
layer {
  name: "res2a"
  type: "Eltwise"
  bottom: "res2a_branch1"
  bottom: "res2a_branch2c"
  top: "res2a"
}
layer {
  name: "res2a_relu"
  type: "ReLU"
  bottom: "res2a"
  top: "res2a"
}
layer {
  name: "res2b_branch2a"
  type: "Convolution"
  bottom: "res2a"
  top: "res2b_branch2a"
  param {
    lr_mult: 0
  }
  convolution_param {
    num_output: 64
    bias_term: false
    pad: 0
    kernel_size: 1
    stride: 1
  }
}
layer {
  name: "bn2b_branch2a"
  type: "BatchNorm"
  bottom: "res2b_branch2a"
  top: "res2b_branch2a"
  batch_norm_param {
    use_global_stats: true
  }
}
layer {
  name: "scale2b_branch2a"
  type: "Scale"
  bottom: "res2b_branch2a"
  top: "res2b_branch2a"
  param {
    lr_mult: 0
    decay_mult: 0
  }
  param {
    lr_mult: 0
    decay_mult: 0
  }
  scale_param {
    bias_term: true
  }
}
layer {
  name: "res2b_branch2a_relu"
  type: "ReLU"
  bottom: "res2b_branch2a"
  top: "res2b_branch2a"
}
layer {
  name: "res2b_branch2b"
  type: "Convolution"
  bottom: "res2b_branch2a"
  top: "res2b_branch2b"
  param {
    lr_mult: 0
  }
  convolution_param {
    num_output: 64
    bias_term: false
    pad: 1
    kernel_size: 3
    stride: 1
  }
}
layer {
  name: "bn2b_branch2b"
  type: "BatchNorm"
  bottom: "res2b_branch2b"
  top: "res2b_branch2b"
  batch_norm_param {
    use_global_stats: true
  }
}
layer {
  name: "scale2b_branch2b"
  type: "Scale"
  bottom: "res2b_branch2b"
  top: "res2b_branch2b"
  param {
    lr_mult: 0
    decay_mult: 0
  }
  param {
    lr_mult: 0
    decay_mult: 0
  }
  scale_param {
    bias_term: true
  }
}
layer {
  name: "res2b_branch2b_relu"
  type: "ReLU"
  bottom: "res2b_branch2b"
  top: "res2b_branch2b"
}
layer {
  name: "res2b_branch2c"
  type: "Convolution"
  bottom: "res2b_branch2b"
  top: "res2b_branch2c"
  param {
    lr_mult: 0
  }
  convolution_param {
    num_output: 256
    bias_term: false
    pad: 0
    kernel_size: 1
    stride: 1
  }
}
layer {
  name: "bn2b_branch2c"
  type: "BatchNorm"
  bottom: "res2b_branch2c"
  top: "res2b_branch2c"
  batch_norm_param {
    use_global_stats: true
  }
}
layer {
  name: "scale2b_branch2c"
  type: "Scale"
  bottom: "res2b_branch2c"
  top: "res2b_branch2c"
  param {
    lr_mult: 0
    decay_mult: 0
  }
  param {
    lr_mult: 0
    decay_mult: 0
  }
  scale_param {
    bias_term: true
  }
}
layer {
  name: "res2b"
  type: "Eltwise"
  bottom: "res2a"
  bottom: "res2b_branch2c"
  top: "res2b"
}
layer {
  name: "res2b_relu"
  type: "ReLU"
  bottom: "res2b"
  top: "res2b"
}
layer {
  name: "res2c_branch2a"
  type: "Convolution"
  bottom: "res2b"
  top: "res2c_branch2a"
  param {
    lr_mult: 0
  }
  convolution_param {
    num_output: 64
    bias_term: false
    pad: 0
    kernel_size: 1
    stride: 1
  }
}
layer {
  name: "bn2c_branch2a"
  type: "BatchNorm"
  bottom: "res2c_branch2a"
  top: "res2c_branch2a"
  batch_norm_param {
    use_global_stats: true
  }
}
layer {
  name: "scale2c_branch2a"
  type: "Scale"
  bottom: "res2c_branch2a"
  top: "res2c_branch2a"
  param {
    lr_mult: 0
    decay_mult: 0
  }
  param {
    lr_mult: 0
    decay_mult: 0
  }
  scale_param {
    bias_term: true
  }
}
layer {
  name: "res2c_branch2a_relu"
  type: "ReLU"
  bottom: "res2c_branch2a"
  top: "res2c_branch2a"
}
layer {
  name: "res2c_branch2b"
  type: "Convolution"
  bottom: "res2c_branch2a"
  top: "res2c_branch2b"
  param {
    lr_mult: 0
  }
  convolution_param {
    num_output: 64
    bias_term: false
    pad: 1
    kernel_size: 3
    stride: 1
  }
}
layer {
  name: "bn2c_branch2b"
  type: "BatchNorm"
  bottom: "res2c_branch2b"
  top: "res2c_branch2b"
  batch_norm_param {
    use_global_stats: true
  }
}
layer {
  name: "scale2c_branch2b"
  type: "Scale"
  bottom: "res2c_branch2b"
  top: "res2c_branch2b"
  param {
    lr_mult: 0
    decay_mult: 0
  }
  param {
    lr_mult: 0
    decay_mult: 0
  }
  scale_param {
    bias_term: true
  }
}
layer {
  name: "res2c_branch2b_relu"
  type: "ReLU"
  bottom: "res2c_branch2b"
  top: "res2c_branch2b"
}
layer {
  name: "res2c_branch2c"
  type: "Convolution"
  bottom: "res2c_branch2b"
  top: "res2c_branch2c"
  param {
    lr_mult: 0
  }
  convolution_param {
    num_output: 256
    bias_term: false
    pad: 0
    kernel_size: 1
    stride: 1
  }
}
layer {
  name: "bn2c_branch2c"
  type: "BatchNorm"
  bottom: "res2c_branch2c"
  top: "res2c_branch2c"
  batch_norm_param {
    use_global_stats: true
  }
}
layer {
  name: "scale2c_branch2c"
  type: "Scale"
  bottom: "res2c_branch2c"
  top: "res2c_branch2c"
  param {
    lr_mult: 0
    decay_mult: 0
  }
  param {
    lr_mult: 0
    decay_mult: 0
  }
  scale_param {
    bias_term: true
  }
}
layer {
  name: "res2c"
  type: "Eltwise"
  bottom: "res2b"
  bottom: "res2c_branch2c"
  top: "res2c"
}
layer {
  name: "res2c_relu"
  type: "ReLU"
  bottom: "res2c"
  top: "res2c"
}
layer {
  name: "res3a_branch1"
  type: "Convolution"
  bottom: "res2c"
  top: "res3a_branch1"
  param {
    lr_mult: 1
  }
  convolution_param {
    num_output: 512
    bias_term: false
    pad: 0
    kernel_size: 1
    stride: 2
  }
}
layer {
  name: "bn3a_branch1"
  type: "BatchNorm"
  bottom: "res3a_branch1"
  top: "res3a_branch1"
  batch_norm_param {
    use_global_stats: true
  }
}
layer {
  name: "scale3a_branch1"
  type: "Scale"
  bottom: "res3a_branch1"
  top: "res3a_branch1"
  param {
    lr_mult: 0
    decay_mult: 0
  }
  param {
    lr_mult: 0
    decay_mult: 0
  }
  scale_param {
    bias_term: true
  }
}
layer {
  name: "res3a_branch2a"
  type: "Convolution"
  bottom: "res2c"
  top: "res3a_branch2a"
  param {
    lr_mult: 1
  }
  convolution_param {
    num_output: 128
    bias_term: false
    pad: 0
    kernel_size: 1
    stride: 2
  }
}
layer {
  name: "bn3a_branch2a"
  type: "BatchNorm"
  bottom: "res3a_branch2a"
  top: "res3a_branch2a"
  batch_norm_param {
    use_global_stats: true
  }
}
layer {
  name: "scale3a_branch2a"
  type: "Scale"
  bottom: "res3a_branch2a"
  top: "res3a_branch2a"
  param {
    lr_mult: 0
    decay_mult: 0
  }
  param {
    lr_mult: 0
    decay_mult: 0
  }
  scale_param {
    bias_term: true
  }
}
layer {
  name: "res3a_branch2a_relu"
  type: "ReLU"
  bottom: "res3a_branch2a"
  top: "res3a_branch2a"
}
layer {
  name: "res3a_branch2b"
  type: "Convolution"
  bottom: "res3a_branch2a"
  top: "res3a_branch2b"
  param {
    lr_mult: 1
  }
  convolution_param {
    num_output: 128
    bias_term: false
    pad: 1
    kernel_size: 3
    stride: 1
  }
}
layer {
  name: "bn3a_branch2b"
  type: "BatchNorm"
  bottom: "res3a_branch2b"
  top: "res3a_branch2b"
  batch_norm_param {
    use_global_stats: true
  }
}
layer {
  name: "scale3a_branch2b"
  type: "Scale"
  bottom: "res3a_branch2b"
  top: "res3a_branch2b"
  param {
    lr_mult: 0
    decay_mult: 0
  }
  param {
    lr_mult: 0
    decay_mult: 0
  }
  scale_param {
    bias_term: true
  }
}
layer {
  name: "res3a_branch2b_relu"
  type: "ReLU"
  bottom: "res3a_branch2b"
  top: "res3a_branch2b"
}
layer {
  name: "res3a_branch2c"
  type: "Convolution"
  bottom: "res3a_branch2b"
  top: "res3a_branch2c"
  param {
    lr_mult: 1
  }
  convolution_param {
    num_output: 512
    bias_term: false
    pad: 0
    kernel_size: 1
    stride: 1
  }
}
layer {
  name: "bn3a_branch2c"
  type: "BatchNorm"
  bottom: "res3a_branch2c"
  top: "res3a_branch2c"
  batch_norm_param {
    use_global_stats: true
  }
}
layer {
  name: "scale3a_branch2c"
  type: "Scale"
  bottom: "res3a_branch2c"
  top: "res3a_branch2c"
  param {
    lr_mult: 0
    decay_mult: 0
  }
  param {
    lr_mult: 0
    decay_mult: 0
  }
  scale_param {
    bias_term: true
  }
}
layer {
  name: "res3a"
  type: "Eltwise"
  bottom: "res3a_branch1"
  bottom: "res3a_branch2c"
  top: "res3a"
}
layer {
  name: "res3a_relu"
  type: "ReLU"
  bottom: "res3a"
  top: "res3a"
}
layer {
  name: "res3b1_branch2a"
  type: "Convolution"
  bottom: "res3a"
  top: "res3b1_branch2a"
  param {
    lr_mult: 1
  }
  convolution_param {
    num_output: 128
    bias_term: false
    pad: 0
    kernel_size: 1
    stride: 1
  }
}
layer {
  name: "bn3b1_branch2a"
  type: "BatchNorm"
  bottom: "res3b1_branch2a"
  top: "res3b1_branch2a"
  batch_norm_param {
    use_global_stats: true
  }
}
layer {
  name: "scale3b1_branch2a"
  type: "Scale"
  bottom: "res3b1_branch2a"
  top: "res3b1_branch2a"
  param {
    lr_mult: 0
    decay_mult: 0
  }
  param {
    lr_mult: 0
    decay_mult: 0
  }
  scale_param {
    bias_term: true
  }
}
layer {
  name: "res3b1_branch2a_relu"
  type: "ReLU"
  bottom: "res3b1_branch2a"
  top: "res3b1_branch2a"
}
layer {
  name: "res3b1_branch2b"
  type: "Convolution"
  bottom: "res3b1_branch2a"
  top: "res3b1_branch2b"
  param {
    lr_mult: 1
  }
  convolution_param {
    num_output: 128
    bias_term: false
    pad: 1
    kernel_size: 3
    stride: 1
  }
}
layer {
  name: "bn3b1_branch2b"
  type: "BatchNorm"
  bottom: "res3b1_branch2b"
  top: "res3b1_branch2b"
  batch_norm_param {
    use_global_stats: true
  }
}
layer {
  name: "scale3b1_branch2b"
  type: "Scale"
  bottom: "res3b1_branch2b"
  top: "res3b1_branch2b"
  param {
    lr_mult: 0
    decay_mult: 0
  }
  param {
    lr_mult: 0
    decay_mult: 0
  }
  scale_param {
    bias_term: true
  }
}
layer {
  name: "res3b1_branch2b_relu"
  type: "ReLU"
  bottom: "res3b1_branch2b"
  top: "res3b1_branch2b"
}
layer {
  name: "res3b1_branch2c"
  type: "Convolution"
  bottom: "res3b1_branch2b"
  top: "res3b1_branch2c"
  param {
    lr_mult: 1
  }
  convolution_param {
    num_output: 512
    bias_term: false
    pad: 0
    kernel_size: 1
    stride: 1
  }
}
layer {
  name: "bn3b1_branch2c"
  type: "BatchNorm"
  bottom: "res3b1_branch2c"
  top: "res3b1_branch2c"
  batch_norm_param {
    use_global_stats: true
  }
}
layer {
  name: "scale3b1_branch2c"
  type: "Scale"
  bottom: "res3b1_branch2c"
  top: "res3b1_branch2c"
  param {
    lr_mult: 0
    decay_mult: 0
  }
  param {
    lr_mult: 0
    decay_mult: 0
  }
  scale_param {
    bias_term: true
  }
}
layer {
  name: "res3b1"
  type: "Eltwise"
  bottom: "res3a"
  bottom: "res3b1_branch2c"
  top: "res3b1"
}
layer {
  name: "res3b1_relu"
  type: "ReLU"
  bottom: "res3b1"
  top: "res3b1"
}
layer {
  name: "res3b2_branch2a"
  type: "Convolution"
  bottom: "res3b1"
  top: "res3b2_branch2a"
  param {
    lr_mult: 1
  }
  convolution_param {
    num_output: 128
    bias_term: false
    pad: 0
    kernel_size: 1
    stride: 1
  }
}
layer {
  name: "bn3b2_branch2a"
  type: "BatchNorm"
  bottom: "res3b2_branch2a"
  top: "res3b2_branch2a"
  batch_norm_param {
    use_global_stats: true
  }
}
layer {
  name: "scale3b2_branch2a"
  type: "Scale"
  bottom: "res3b2_branch2a"
  top: "res3b2_branch2a"
  param {
    lr_mult: 0
    decay_mult: 0
  }
  param {
    lr_mult: 0
    decay_mult: 0
  }
  scale_param {
    bias_term: true
  }
}
layer {
  name: "res3b2_branch2a_relu"
  type: "ReLU"
  bottom: "res3b2_branch2a"
  top: "res3b2_branch2a"
}
layer {
  name: "res3b2_branch2b"
  type: "Convolution"
  bottom: "res3b2_branch2a"
  top: "res3b2_branch2b"
  param {
    lr_mult: 1
  }
  convolution_param {
    num_output: 128
    bias_term: false
    pad: 1
    kernel_size: 3
    stride: 1
  }
}
layer {
  name: "bn3b2_branch2b"
  type: "BatchNorm"
  bottom: "res3b2_branch2b"
  top: "res3b2_branch2b"
  batch_norm_param {
    use_global_stats: true
  }
}
layer {
  name: "scale3b2_branch2b"
  type: "Scale"
  bottom: "res3b2_branch2b"
  top: "res3b2_branch2b"
  param {
    lr_mult: 0
    decay_mult: 0
  }
  param {
    lr_mult: 0
    decay_mult: 0
  }
  scale_param {
    bias_term: true
  }
}
layer {
  name: "res3b2_branch2b_relu"
  type: "ReLU"
  bottom: "res3b2_branch2b"
  top: "res3b2_branch2b"
}
layer {
  name: "res3b2_branch2c"
  type: "Convolution"
  bottom: "res3b2_branch2b"
  top: "res3b2_branch2c"
  param {
    lr_mult: 1
  }
  convolution_param {
    num_output: 512
    bias_term: false
    pad: 0
    kernel_size: 1
    stride: 1
  }
}
layer {
  name: "bn3b2_branch2c"
  type: "BatchNorm"
  bottom: "res3b2_branch2c"
  top: "res3b2_branch2c"
  batch_norm_param {
    use_global_stats: true
  }
}
layer {
  name: "scale3b2_branch2c"
  type: "Scale"
  bottom: "res3b2_branch2c"
  top: "res3b2_branch2c"
  param {
    lr_mult: 0
    decay_mult: 0
  }
  param {
    lr_mult: 0
    decay_mult: 0
  }
  scale_param {
    bias_term: true
  }
}
layer {
  name: "res3b2"
  type: "Eltwise"
  bottom: "res3b1"
  bottom: "res3b2_branch2c"
  top: "res3b2"
}
layer {
  name: "res3b2_relu"
  type: "ReLU"
  bottom: "res3b2"
  top: "res3b2"
}
layer {
  name: "res3b3_branch2a"
  type: "Convolution"
  bottom: "res3b2"
  top: "res3b3_branch2a"
  param {
    lr_mult: 1
  }
  convolution_param {
    num_output: 128
    bias_term: false
    pad: 0
    kernel_size: 1
    stride: 1
  }
}
layer {
  name: "bn3b3_branch2a"
  type: "BatchNorm"
  bottom: "res3b3_branch2a"
  top: "res3b3_branch2a"
  batch_norm_param {
    use_global_stats: true
  }
}
layer {
  name: "scale3b3_branch2a"
  type: "Scale"
  bottom: "res3b3_branch2a"
  top: "res3b3_branch2a"
  param {
    lr_mult: 0
    decay_mult: 0
  }
  param {
    lr_mult: 0
    decay_mult: 0
  }
  scale_param {
    bias_term: true
  }
}
layer {
  name: "res3b3_branch2a_relu"
  type: "ReLU"
  bottom: "res3b3_branch2a"
  top: "res3b3_branch2a"
}
layer {
  name: "res3b3_branch2b"
  type: "Convolution"
  bottom: "res3b3_branch2a"
  top: "res3b3_branch2b"
  param {
    lr_mult: 1
  }
  convolution_param {
    num_output: 128
    bias_term: false
    pad: 1
    kernel_size: 3
    stride: 1
  }
}
layer {
  name: "bn3b3_branch2b"
  type: "BatchNorm"
  bottom: "res3b3_branch2b"
  top: "res3b3_branch2b"
  batch_norm_param {
    use_global_stats: true
  }
}
layer {
  name: "scale3b3_branch2b"
  type: "Scale"
  bottom: "res3b3_branch2b"
  top: "res3b3_branch2b"
  param {
    lr_mult: 0
    decay_mult: 0
  }
  param {
    lr_mult: 0
    decay_mult: 0
  }
  scale_param {
    bias_term: true
  }
}
layer {
  name: "res3b3_branch2b_relu"
  type: "ReLU"
  bottom: "res3b3_branch2b"
  top: "res3b3_branch2b"
}
layer {
  name: "res3b3_branch2c"
  type: "Convolution"
  bottom: "res3b3_branch2b"
  top: "res3b3_branch2c"
  param {
    lr_mult: 1
  }
  convolution_param {
    num_output: 512
    bias_term: false
    pad: 0
    kernel_size: 1
    stride: 1
  }
}
layer {
  name: "bn3b3_branch2c"
  type: "BatchNorm"
  bottom: "res3b3_branch2c"
  top: "res3b3_branch2c"
  batch_norm_param {
    use_global_stats: true
  }
}
layer {
  name: "scale3b3_branch2c"
  type: "Scale"
  bottom: "res3b3_branch2c"
  top: "res3b3_branch2c"
  param {
    lr_mult: 0
    decay_mult: 0
  }
  param {
    lr_mult: 0
    decay_mult: 0
  }
  scale_param {
    bias_term: true
  }
}
layer {
  name: "res3b3"
  type: "Eltwise"
  bottom: "res3b2"
  bottom: "res3b3_branch2c"
  top: "res3b3"
}
layer {
  name: "res3b3_relu"
  type: "ReLU"
  bottom: "res3b3"
  top: "res3b3"
}
layer {
  name: "res4a_branch1"
  type: "Convolution"
  bottom: "res3b3"
  top: "res4a_branch1"
  param {
    lr_mult: 1
  }
  convolution_param {
    num_output: 1024
    bias_term: false
    pad: 0
    kernel_size: 1
    stride: 2
  }
}
layer {
  name: "bn4a_branch1"
  type: "BatchNorm"
  bottom: "res4a_branch1"
  top: "res4a_branch1"
  batch_norm_param {
    use_global_stats: true
  }
}
layer {
  name: "scale4a_branch1"
  type: "Scale"
  bottom: "res4a_branch1"
  top: "res4a_branch1"
  param {
    lr_mult: 0
    decay_mult: 0
  }
  param {
    lr_mult: 0
    decay_mult: 0
  }
  scale_param {
    bias_term: true
  }
}
layer {
  name: "res4a_branch2a"
  type: "Convolution"
  bottom: "res3b3"
  top: "res4a_branch2a"
  param {
    lr_mult: 1
  }
  convolution_param {
    num_output: 256
    bias_term: false
    pad: 0
    kernel_size: 1
    stride: 2
  }
}
layer {
  name: "bn4a_branch2a"
  type: "BatchNorm"
  bottom: "res4a_branch2a"
  top: "res4a_branch2a"
  batch_norm_param {
    use_global_stats: true
  }
}
layer {
  name: "scale4a_branch2a"
  type: "Scale"
  bottom: "res4a_branch2a"
  top: "res4a_branch2a"
  param {
    lr_mult: 0
    decay_mult: 0
  }
  param {
    lr_mult: 0
    decay_mult: 0
  }
  scale_param {
    bias_term: true
  }
}
layer {
  name: "res4a_branch2a_relu"
  type: "ReLU"
  bottom: "res4a_branch2a"
  top: "res4a_branch2a"
}
layer {
  name: "res4a_branch2b"
  type: "Convolution"
  bottom: "res4a_branch2a"
  top: "res4a_branch2b"
  param {
    lr_mult: 1
  }
  convolution_param {
    num_output: 256
    bias_term: false
    pad: 1
    kernel_size: 3
    stride: 1
  }
}
layer {
  name: "bn4a_branch2b"
  type: "BatchNorm"
  bottom: "res4a_branch2b"
  top: "res4a_branch2b"
  batch_norm_param {
    use_global_stats: true
  }
}
layer {
  name: "scale4a_branch2b"
  type: "Scale"
  bottom: "res4a_branch2b"
  top: "res4a_branch2b"
  param {
    lr_mult: 0
    decay_mult: 0
  }
  param {
    lr_mult: 0
    decay_mult: 0
  }
  scale_param {
    bias_term: true
  }
}
layer {
  name: "res4a_branch2b_relu"
  type: "ReLU"
  bottom: "res4a_branch2b"
  top: "res4a_branch2b"
}
layer {
  name: "res4a_branch2c"
  type: "Convolution"
  bottom: "res4a_branch2b"
  top: "res4a_branch2c"
  param {
    lr_mult: 1
  }
  convolution_param {
    num_output: 1024
    bias_term: false
    pad: 0
    kernel_size: 1
    stride: 1
  }
}
layer {
  name: "bn4a_branch2c"
  type: "BatchNorm"
  bottom: "res4a_branch2c"
  top: "res4a_branch2c"
  batch_norm_param {
    use_global_stats: true
  }
}
layer {
  name: "scale4a_branch2c"
  type: "Scale"
  bottom: "res4a_branch2c"
  top: "res4a_branch2c"
  param {
    lr_mult: 0
    decay_mult: 0
  }
  param {
    lr_mult: 0
    decay_mult: 0
  }
  scale_param {
    bias_term: true
  }
}
layer {
  name: "res4a"
  type: "Eltwise"
  bottom: "res4a_branch1"
  bottom: "res4a_branch2c"
  top: "res4a"
}
layer {
  name: "res4a_relu"
  type: "ReLU"
  bottom: "res4a"
  top: "res4a"
}
layer {
  name: "res4b1_branch2a"
  type: "Convolution"
  bottom: "res4a"
  top: "res4b1_branch2a"
  param {
    lr_mult: 1
  }
  convolution_param {
    num_output: 256
    bias_term: false
    pad: 0
    kernel_size: 1
    stride: 1
  }
}
layer {
  name: "bn4b1_branch2a"
  type: "BatchNorm"
  bottom: "res4b1_branch2a"
  top: "res4b1_branch2a"
  batch_norm_param {
    use_global_stats: true
  }
}
layer {
  name: "scale4b1_branch2a"
  type: "Scale"
  bottom: "res4b1_branch2a"
  top: "res4b1_branch2a"
  param {
    lr_mult: 0
    decay_mult: 0
  }
  param {
    lr_mult: 0
    decay_mult: 0
  }
  scale_param {
    bias_term: true
  }
}
layer {
  name: "res4b1_branch2a_relu"
  type: "ReLU"
  bottom: "res4b1_branch2a"
  top: "res4b1_branch2a"
}
layer {
  name: "res4b1_branch2b"
  type: "Convolution"
  bottom: "res4b1_branch2a"
  top: "res4b1_branch2b"
  param {
    lr_mult: 1
  }
  convolution_param {
    num_output: 256
    bias_term: false
    pad: 1
    kernel_size: 3
    stride: 1
  }
}
layer {
  name: "bn4b1_branch2b"
  type: "BatchNorm"
  bottom: "res4b1_branch2b"
  top: "res4b1_branch2b"
  batch_norm_param {
    use_global_stats: true
  }
}
layer {
  name: "scale4b1_branch2b"
  type: "Scale"
  bottom: "res4b1_branch2b"
  top: "res4b1_branch2b"
  param {
    lr_mult: 0
    decay_mult: 0
  }
  param {
    lr_mult: 0
    decay_mult: 0
  }
  scale_param {
    bias_term: true
  }
}
layer {
  name: "res4b1_branch2b_relu"
  type: "ReLU"
  bottom: "res4b1_branch2b"
  top: "res4b1_branch2b"
}
layer {
  name: "res4b1_branch2c"
  type: "Convolution"
  bottom: "res4b1_branch2b"
  top: "res4b1_branch2c"
  param {
    lr_mult: 1
  }
  convolution_param {
    num_output: 1024
    bias_term: false
    pad: 0
    kernel_size: 1
    stride: 1
  }
}
layer {
  name: "bn4b1_branch2c"
  type: "BatchNorm"
  bottom: "res4b1_branch2c"
  top: "res4b1_branch2c"
  batch_norm_param {
    use_global_stats: true
  }
}
layer {
  name: "scale4b1_branch2c"
  type: "Scale"
  bottom: "res4b1_branch2c"
  top: "res4b1_branch2c"
  param {
    lr_mult: 0
    decay_mult: 0
  }
  param {
    lr_mult: 0
    decay_mult: 0
  }
  scale_param {
    bias_term: true
  }
}
layer {
  name: "res4b1"
  type: "Eltwise"
  bottom: "res4a"
  bottom: "res4b1_branch2c"
  top: "res4b1"
}
layer {
  name: "res4b1_relu"
  type: "ReLU"
  bottom: "res4b1"
  top: "res4b1"
}
layer {
  name: "res4b2_branch2a"
  type: "Convolution"
  bottom: "res4b1"
  top: "res4b2_branch2a"
  param {
    lr_mult: 1
  }
  convolution_param {
    num_output: 256
    bias_term: false
    pad: 0
    kernel_size: 1
    stride: 1
  }
}
layer {
  name: "bn4b2_branch2a"
  type: "BatchNorm"
  bottom: "res4b2_branch2a"
  top: "res4b2_branch2a"
  batch_norm_param {
    use_global_stats: true
  }
}
layer {
  name: "scale4b2_branch2a"
  type: "Scale"
  bottom: "res4b2_branch2a"
  top: "res4b2_branch2a"
  param {
    lr_mult: 0
    decay_mult: 0
  }
  param {
    lr_mult: 0
    decay_mult: 0
  }
  scale_param {
    bias_term: true
  }
}
layer {
  name: "res4b2_branch2a_relu"
  type: "ReLU"
  bottom: "res4b2_branch2a"
  top: "res4b2_branch2a"
}
layer {
  name: "res4b2_branch2b"
  type: "Convolution"
  bottom: "res4b2_branch2a"
  top: "res4b2_branch2b"
  param {
    lr_mult: 1
  }
  convolution_param {
    num_output: 256
    bias_term: false
    pad: 1
    kernel_size: 3
    stride: 1
  }
}
layer {
  name: "bn4b2_branch2b"
  type: "BatchNorm"
  bottom: "res4b2_branch2b"
  top: "res4b2_branch2b"
  batch_norm_param {
    use_global_stats: true
  }
}
layer {
  name: "scale4b2_branch2b"
  type: "Scale"
  bottom: "res4b2_branch2b"
  top: "res4b2_branch2b"
  param {
    lr_mult: 0
    decay_mult: 0
  }
  param {
    lr_mult: 0
    decay_mult: 0
  }
  scale_param {
    bias_term: true
  }
}
layer {
  name: "res4b2_branch2b_relu"
  type: "ReLU"
  bottom: "res4b2_branch2b"
  top: "res4b2_branch2b"
}
layer {
  name: "res4b2_branch2c"
  type: "Convolution"
  bottom: "res4b2_branch2b"
  top: "res4b2_branch2c"
  param {
    lr_mult: 1
  }
  convolution_param {
    num_output: 1024
    bias_term: false
    pad: 0
    kernel_size: 1
    stride: 1
  }
}
layer {
  name: "bn4b2_branch2c"
  type: "BatchNorm"
  bottom: "res4b2_branch2c"
  top: "res4b2_branch2c"
  batch_norm_param {
    use_global_stats: true
  }
}
layer {
  name: "scale4b2_branch2c"
  type: "Scale"
  bottom: "res4b2_branch2c"
  top: "res4b2_branch2c"
  param {
    lr_mult: 0
    decay_mult: 0
  }
  param {
    lr_mult: 0
    decay_mult: 0
  }
  scale_param {
    bias_term: true
  }
}
layer {
  name: "res4b2"
  type: "Eltwise"
  bottom: "res4b1"
  bottom: "res4b2_branch2c"
  top: "res4b2"
}
layer {
  name: "res4b2_relu"
  type: "ReLU"
  bottom: "res4b2"
  top: "res4b2"
}
layer {
  name: "res4b3_branch2a"
  type: "Convolution"
  bottom: "res4b2"
  top: "res4b3_branch2a"
  param {
    lr_mult: 1
  }
  convolution_param {
    num_output: 256
    bias_term: false
    pad: 0
    kernel_size: 1
    stride: 1
  }
}
layer {
  name: "bn4b3_branch2a"
  type: "BatchNorm"
  bottom: "res4b3_branch2a"
  top: "res4b3_branch2a"
  batch_norm_param {
    use_global_stats: true
  }
}
layer {
  name: "scale4b3_branch2a"
  type: "Scale"
  bottom: "res4b3_branch2a"
  top: "res4b3_branch2a"
  param {
    lr_mult: 0
    decay_mult: 0
  }
  param {
    lr_mult: 0
    decay_mult: 0
  }
  scale_param {
    bias_term: true
  }
}
layer {
  name: "res4b3_branch2a_relu"
  type: "ReLU"
  bottom: "res4b3_branch2a"
  top: "res4b3_branch2a"
}
layer {
  name: "res4b3_branch2b"
  type: "Convolution"
  bottom: "res4b3_branch2a"
  top: "res4b3_branch2b"
  param {
    lr_mult: 1
  }
  convolution_param {
    num_output: 256
    bias_term: false
    pad: 1
    kernel_size: 3
    stride: 1
  }
}
layer {
  name: "bn4b3_branch2b"
  type: "BatchNorm"
  bottom: "res4b3_branch2b"
  top: "res4b3_branch2b"
  batch_norm_param {
    use_global_stats: true
  }
}
layer {
  name: "scale4b3_branch2b"
  type: "Scale"
  bottom: "res4b3_branch2b"
  top: "res4b3_branch2b"
  param {
    lr_mult: 0
    decay_mult: 0
  }
  param {
    lr_mult: 0
    decay_mult: 0
  }
  scale_param {
    bias_term: true
  }
}
layer {
  name: "res4b3_branch2b_relu"
  type: "ReLU"
  bottom: "res4b3_branch2b"
  top: "res4b3_branch2b"
}
layer {
  name: "res4b3_branch2c"
  type: "Convolution"
  bottom: "res4b3_branch2b"
  top: "res4b3_branch2c"
  param {
    lr_mult: 1
  }
  convolution_param {
    num_output: 1024
    bias_term: false
    pad: 0
    kernel_size: 1
    stride: 1
  }
}
layer {
  name: "bn4b3_branch2c"
  type: "BatchNorm"
  bottom: "res4b3_branch2c"
  top: "res4b3_branch2c"
  batch_norm_param {
    use_global_stats: true
  }
}
layer {
  name: "scale4b3_branch2c"
  type: "Scale"
  bottom: "res4b3_branch2c"
  top: "res4b3_branch2c"
  param {
    lr_mult: 0
    decay_mult: 0
  }
  param {
    lr_mult: 0
    decay_mult: 0
  }
  scale_param {
    bias_term: true
  }
}
layer {
  name: "res4b3"
  type: "Eltwise"
  bottom: "res4b2"
  bottom: "res4b3_branch2c"
  top: "res4b3"
}
layer {
  name: "res4b3_relu"
  type: "ReLU"
  bottom: "res4b3"
  top: "res4b3"
}
layer {
  name: "res4b4_branch2a"
  type: "Convolution"
  bottom: "res4b3"
  top: "res4b4_branch2a"
  param {
    lr_mult: 1
  }
  convolution_param {
    num_output: 256
    bias_term: false
    pad: 0
    kernel_size: 1
    stride: 1
  }
}
layer {
  name: "bn4b4_branch2a"
  type: "BatchNorm"
  bottom: "res4b4_branch2a"
  top: "res4b4_branch2a"
  batch_norm_param {
    use_global_stats: true
  }
}
layer {
  name: "scale4b4_branch2a"
  type: "Scale"
  bottom: "res4b4_branch2a"
  top: "res4b4_branch2a"
  param {
    lr_mult: 0
    decay_mult: 0
  }
  param {
    lr_mult: 0
    decay_mult: 0
  }
  scale_param {
    bias_term: true
  }
}
layer {
  name: "res4b4_branch2a_relu"
  type: "ReLU"
  bottom: "res4b4_branch2a"
  top: "res4b4_branch2a"
}
layer {
  name: "res4b4_branch2b"
  type: "Convolution"
  bottom: "res4b4_branch2a"
  top: "res4b4_branch2b"
  param {
    lr_mult: 1
  }
  convolution_param {
    num_output: 256
    bias_term: false
    pad: 1
    kernel_size: 3
    stride: 1
  }
}
layer {
  name: "bn4b4_branch2b"
  type: "BatchNorm"
  bottom: "res4b4_branch2b"
  top: "res4b4_branch2b"
  batch_norm_param {
    use_global_stats: true
  }
}
layer {
  name: "scale4b4_branch2b"
  type: "Scale"
  bottom: "res4b4_branch2b"
  top: "res4b4_branch2b"
I1129 09:34:39.376405  3116 layer_factory.hpp:77] Creating layer input-data
I1129 09:34:39.493500  3116 net.cpp:100] Creating Layer input-data
I1129 09:34:39.493530  3116 net.cpp:418] input-data -> data
I1129 09:34:39.493543  3116 net.cpp:418] input-data -> im_info
I1129 09:34:39.493553  3116 net.cpp:418] input-data -> gt_boxes
RoiDataLayer: name_to_top: {'gt_boxes': 2, 'data': 0, 'im_info': 1}
I1129 09:34:45.170274  3116 net.cpp:150] Setting up input-data
I1129 09:34:45.170294  3116 net.cpp:157] Top shape: 1 3 700 1000 (2100000)
I1129 09:34:45.170296  3116 net.cpp:157] Top shape: 1 3 (3)
I1129 09:34:45.170300  3116 net.cpp:157] Top shape: 1 4 (4)
I1129 09:34:45.170300  3116 net.cpp:165] Memory required for data: 8400028
I1129 09:34:45.170305  3116 layer_factory.hpp:77] Creating layer data_input-data_0_split
I1129 09:34:45.170316  3116 net.cpp:100] Creating Layer data_input-data_0_split
I1129 09:34:45.170331  3116 net.cpp:444] data_input-data_0_split <- data
I1129 09:34:45.170336  3116 net.cpp:418] data_input-data_0_split -> data_input-data_0_split_0
I1129 09:34:45.170342  3116 net.cpp:418] data_input-data_0_split -> data_input-data_0_split_1
I1129 09:34:45.170374  3116 net.cpp:150] Setting up data_input-data_0_split
I1129 09:34:45.170378  3116 net.cpp:157] Top shape: 1 3 700 1000 (2100000)
I1129 09:34:45.170382  3116 net.cpp:157] Top shape: 1 3 700 1000 (2100000)
I1129 09:34:45.170382  3116 net.cpp:165] Memory required for data: 25200028
I1129 09:34:45.170384  3116 layer_factory.hpp:77] Creating layer im_info_input-data_1_split
I1129 09:34:45.170387  3116 net.cpp:100] Creating Layer im_info_input-data_1_split
I1129 09:34:45.170389  3116 net.cpp:444] im_info_input-data_1_split <- im_info
I1129 09:34:45.170392  3116 net.cpp:418] im_info_input-data_1_split -> im_info_input-data_1_split_0
I1129 09:34:45.170394  3116 net.cpp:418] im_info_input-data_1_split -> im_info_input-data_1_split_1
I1129 09:34:45.170420  3116 net.cpp:150] Setting up im_info_input-data_1_split
I1129 09:34:45.170425  3116 net.cpp:157] Top shape: 1 3 (3)
I1129 09:34:45.170428  3116 net.cpp:157] Top shape: 1 3 (3)
I1129 09:34:45.170429  3116 net.cpp:165] Memory required for data: 25200052
I1129 09:34:45.170431  3116 layer_factory.hpp:77] Creating layer gt_boxes_input-data_2_split
I1129 09:34:45.170433  3116 net.cpp:100] Creating Layer gt_boxes_input-data_2_split
I1129 09:34:45.170436  3116 net.cpp:444] gt_boxes_input-data_2_split <- gt_boxes
I1129 09:34:45.170439  3116 net.cpp:418] gt_boxes_input-data_2_split -> gt_boxes_input-data_2_split_0
I1129 09:34:45.170444  3116 net.cpp:418] gt_boxes_input-data_2_split -> gt_boxes_input-data_2_split_1
I1129 09:34:45.170470  3116 net.cpp:150] Setting up gt_boxes_input-data_2_split
I1129 09:34:45.170473  3116 net.cpp:157] Top shape: 1 4 (4)
I1129 09:34:45.170475  3116 net.cpp:157] Top shape: 1 4 (4)
I1129 09:34:45.170477  3116 net.cpp:165] Memory required for data: 25200084
I1129 09:34:45.170480  3116 layer_factory.hpp:77] Creating layer conv1
I1129 09:34:45.170492  3116 net.cpp:100] Creating Layer conv1
I1129 09:34:45.170493  3116 net.cpp:444] conv1 <- data_input-data_0_split_0
I1129 09:34:45.170497  3116 net.cpp:418] conv1 -> conv1
I1129 09:34:45.592681  3116 net.cpp:150] Setting up conv1
I1129 09:34:45.592706  3116 net.cpp:157] Top shape: 1 64 350 500 (11200000)
I1129 09:34:45.592710  3116 net.cpp:165] Memory required for data: 70000084
I1129 09:34:45.592720  3116 layer_factory.hpp:77] Creating layer bn_conv1
I1129 09:34:45.592730  3116 net.cpp:100] Creating Layer bn_conv1
I1129 09:34:45.592735  3116 net.cpp:444] bn_conv1 <- conv1
I1129 09:34:45.592739  3116 net.cpp:405] bn_conv1 -> conv1 (in-place)
I1129 09:34:45.593868  3116 net.cpp:150] Setting up bn_conv1
I1129 09:34:45.593878  3116 net.cpp:157] Top shape: 1 64 350 500 (11200000)
I1129 09:34:45.593879  3116 net.cpp:165] Memory required for data: 114800084
I1129 09:34:45.593888  3116 layer_factory.hpp:77] Creating layer scale_conv1
I1129 09:34:45.593894  3116 net.cpp:100] Creating Layer scale_conv1
I1129 09:34:45.593895  3116 net.cpp:444] scale_conv1 <- conv1
I1129 09:34:45.593899  3116 net.cpp:405] scale_conv1 -> conv1 (in-place)
I1129 09:34:45.593945  3116 layer_factory.hpp:77] Creating layer scale_conv1
I1129 09:34:45.594949  3116 net.cpp:150] Setting up scale_conv1
I1129 09:34:45.594959  3116 net.cpp:157] Top shape: 1 64 350 500 (11200000)
I1129 09:34:45.594960  3116 net.cpp:165] Memory required for data: 159600084
I1129 09:34:45.594967  3116 layer_factory.hpp:77] Creating layer conv1_relu
I1129 09:34:45.594974  3116 net.cpp:100] Creating Layer conv1_relu
I1129 09:34:45.594976  3116 net.cpp:444] conv1_relu <- conv1
I1129 09:34:45.594980  3116 net.cpp:405] conv1_relu -> conv1 (in-place)
I1129 09:34:45.595381  3116 net.cpp:150] Setting up conv1_relu
I1129 09:34:45.595389  3116 net.cpp:157] Top shape: 1 64 350 500 (11200000)
I1129 09:34:45.595392  3116 net.cpp:165] Memory required for data: 204400084
I1129 09:34:45.595394  3116 layer_factory.hpp:77] Creating layer pool1
I1129 09:34:45.595401  3116 net.cpp:100] Creating Layer pool1
I1129 09:34:45.595403  3116 net.cpp:444] pool1 <- conv1
I1129 09:34:45.595407  3116 net.cpp:418] pool1 -> pool1
I1129 09:34:45.595463  3116 net.cpp:150] Setting up pool1
I1129 09:34:45.595468  3116 net.cpp:157] Top shape: 1 64 175 250 (2800000)
I1129 09:34:45.595469  3116 net.cpp:165] Memory required for data: 215600084
I1129 09:34:45.595471  3116 layer_factory.hpp:77] Creating layer pool1_pool1_0_split
I1129 09:34:45.595475  3116 net.cpp:100] Creating Layer pool1_pool1_0_split
I1129 09:34:45.595477  3116 net.cpp:444] pool1_pool1_0_split <- pool1
I1129 09:34:45.595481  3116 net.cpp:418] pool1_pool1_0_split -> pool1_pool1_0_split_0
I1129 09:34:45.595485  3116 net.cpp:418] pool1_pool1_0_split -> pool1_pool1_0_split_1
I1129 09:34:45.595521  3116 net.cpp:150] Setting up pool1_pool1_0_split
I1129 09:34:45.595525  3116 net.cpp:157] Top shape: 1 64 175 250 (2800000)
I1129 09:34:45.595528  3116 net.cpp:157] Top shape: 1 64 175 250 (2800000)
I1129 09:34:45.595530  3116 net.cpp:165] Memory required for data: 238000084
I1129 09:34:45.595532  3116 layer_factory.hpp:77] Creating layer res2a_branch1
I1129 09:34:45.595538  3116 net.cpp:100] Creating Layer res2a_branch1
I1129 09:34:45.595541  3116 net.cpp:444] res2a_branch1 <- pool1_pool1_0_split_0
I1129 09:34:45.595544  3116 net.cpp:418] res2a_branch1 -> res2a_branch1
I1129 09:34:45.596544  3116 net.cpp:150] Setting up res2a_branch1
I1129 09:34:45.596555  3116 net.cpp:157] Top shape: 1 256 175 250 (11200000)
I1129 09:34:45.596559  3116 net.cpp:165] Memory required for data: 282800084
I1129 09:34:45.596563  3116 layer_factory.hpp:77] Creating layer bn2a_branch1
I1129 09:34:45.596570  3116 net.cpp:100] Creating Layer bn2a_branch1
I1129 09:34:45.596572  3116 net.cpp:444] bn2a_branch1 <- res2a_branch1
I1129 09:34:45.596576  3116 net.cpp:405] bn2a_branch1 -> res2a_branch1 (in-place)
I1129 09:34:45.597584  3116 net.cpp:150] Setting up bn2a_branch1
I1129 09:34:45.597594  3116 net.cpp:157] Top shape: 1 256 175 250 (11200000)
I1129 09:34:45.597595  3116 net.cpp:165] Memory required for data: 327600084
I1129 09:34:45.597605  3116 layer_factory.hpp:77] Creating layer scale2a_branch1
I1129 09:34:45.597612  3116 net.cpp:100] Creating Layer scale2a_branch1
I1129 09:34:45.597615  3116 net.cpp:444] scale2a_branch1 <- res2a_branch1
I1129 09:34:45.597618  3116 net.cpp:405] scale2a_branch1 -> res2a_branch1 (in-place)
I1129 09:34:45.597663  3116 layer_factory.hpp:77] Creating layer scale2a_branch1
I1129 09:34:45.597837  3116 net.cpp:150] Setting up scale2a_branch1
I1129 09:34:45.597842  3116 net.cpp:157] Top shape: 1 256 175 250 (11200000)
I1129 09:34:45.597844  3116 net.cpp:165] Memory required for data: 372400084
I1129 09:34:45.597849  3116 layer_factory.hpp:77] Creating layer res2a_branch2a
I1129 09:34:45.597854  3116 net.cpp:100] Creating Layer res2a_branch2a
I1129 09:34:45.597857  3116 net.cpp:444] res2a_branch2a <- pool1_pool1_0_split_1
I1129 09:34:45.597861  3116 net.cpp:418] res2a_branch2a -> res2a_branch2a
I1129 09:34:45.599967  3116 net.cpp:150] Setting up res2a_branch2a
I1129 09:34:45.599975  3116 net.cpp:157] Top shape: 1 64 175 250 (2800000)
I1129 09:34:45.599978  3116 net.cpp:165] Memory required for data: 383600084
I1129 09:34:45.599982  3116 layer_factory.hpp:77] Creating layer bn2a_branch2a
I1129 09:34:45.599987  3116 net.cpp:100] Creating Layer bn2a_branch2a
I1129 09:34:45.599989  3116 net.cpp:444] bn2a_branch2a <- res2a_branch2a
I1129 09:34:45.599992  3116 net.cpp:405] bn2a_branch2a -> res2a_branch2a (in-place)
I1129 09:34:45.600236  3116 net.cpp:150] Setting up bn2a_branch2a
I1129 09:34:45.600241  3116 net.cpp:157] Top shape: 1 64 175 250 (2800000)
I1129 09:34:45.600244  3116 net.cpp:165] Memory required for data: 394800084
I1129 09:34:45.600247  3116 layer_factory.hpp:77] Creating layer scale2a_branch2a
I1129 09:34:45.600252  3116 net.cpp:100] Creating Layer scale2a_branch2a
I1129 09:34:45.600255  3116 net.cpp:444] scale2a_branch2a <- res2a_branch2a
I1129 09:34:45.600257  3116 net.cpp:405] scale2a_branch2a -> res2a_branch2a (in-place)
I1129 09:34:45.600293  3116 layer_factory.hpp:77] Creating layer scale2a_branch2a
I1129 09:34:45.600461  3116 net.cpp:150] Setting up scale2a_branch2a
I1129 09:34:45.600466  3116 net.cpp:157] Top shape: 1 64 175 250 (2800000)
I1129 09:34:45.600467  3116 net.cpp:165] Memory required for data: 406000084
I1129 09:34:45.600472  3116 layer_factory.hpp:77] Creating layer res2a_branch2a_relu
I1129 09:34:45.600478  3116 net.cpp:100] Creating Layer res2a_branch2a_relu
I1129 09:34:45.600481  3116 net.cpp:444] res2a_branch2a_relu <- res2a_branch2a
I1129 09:34:45.600483  3116 net.cpp:405] res2a_branch2a_relu -> res2a_branch2a (in-place)
I1129 09:34:45.600817  3116 net.cpp:150] Setting up res2a_branch2a_relu
I1129 09:34:45.600826  3116 net.cpp:157] Top shape: 1 64 175 250 (2800000)
I1129 09:34:45.600827  3116 net.cpp:165] Memory required for data: 417200084
I1129 09:34:45.600829  3116 layer_factory.hpp:77] Creating layer res2a_branch2b
I1129 09:34:45.600834  3116 net.cpp:100] Creating Layer res2a_branch2b
I1129 09:34:45.600836  3116 net.cpp:444] res2a_branch2b <- res2a_branch2a
I1129 09:34:45.600841  3116 net.cpp:418] res2a_branch2b -> res2a_branch2b
I1129 09:34:45.601421  3116 net.cpp:150] Setting up res2a_branch2b
I1129 09:34:45.601428  3116 net.cpp:157] Top shape: 1 64 175 250 (2800000)
I1129 09:34:45.601430  3116 net.cpp:165] Memory required for data: 428400084
I1129 09:34:45.601433  3116 layer_factory.hpp:77] Creating layer bn2a_branch2b
I1129 09:34:45.601438  3116 net.cpp:100] Creating Layer bn2a_branch2b
I1129 09:34:45.601439  3116 net.cpp:444] bn2a_branch2b <- res2a_branch2b
I1129 09:34:45.601442  3116 net.cpp:405] bn2a_branch2b -> res2a_branch2b (in-place)
I1129 09:34:45.601670  3116 net.cpp:150] Setting up bn2a_branch2b
I1129 09:34:45.601675  3116 net.cpp:157] Top shape: 1 64 175 250 (2800000)
I1129 09:34:45.601676  3116 net.cpp:165] Memory required for data: 439600084
I1129 09:34:45.601681  3116 layer_factory.hpp:77] Creating layer scale2a_branch2b
I1129 09:34:45.601686  3116 net.cpp:100] Creating Layer scale2a_branch2b
I1129 09:34:45.601687  3116 net.cpp:444] scale2a_branch2b <- res2a_branch2b
I1129 09:34:45.601691  3116 net.cpp:405] scale2a_branch2b -> res2a_branch2b (in-place)
I1129 09:34:45.601727  3116 layer_factory.hpp:77] Creating layer scale2a_branch2b
I1129 09:34:45.601891  3116 net.cpp:150] Setting up scale2a_branch2b
I1129 09:34:45.601897  3116 net.cpp:157] Top shape: 1 64 175 250 (2800000)
I1129 09:34:45.601897  3116 net.cpp:165] Memory required for data: 450800084
I1129 09:34:45.601902  3116 layer_factory.hpp:77] Creating layer res2a_branch2b_relu
I1129 09:34:45.601905  3116 net.cpp:100] Creating Layer res2a_branch2b_relu
I1129 09:34:45.601907  3116 net.cpp:444] res2a_branch2b_relu <- res2a_branch2b
I1129 09:34:45.601909  3116 net.cpp:405] res2a_branch2b_relu -> res2a_branch2b (in-place)
I1129 09:34:45.602236  3116 net.cpp:150] Setting up res2a_branch2b_relu
I1129 09:34:45.602244  3116 net.cpp:157] Top shape: 1 64 175 250 (2800000)
I1129 09:34:45.602246  3116 net.cpp:165] Memory required for data: 462000084
I1129 09:34:45.602248  3116 layer_factory.hpp:77] Creating layer res2a_branch2c
I1129 09:34:45.602253  3116 net.cpp:100] Creating Layer res2a_branch2c
I1129 09:34:45.602255  3116 net.cpp:444] res2a_branch2c <- res2a_branch2b
I1129 09:34:45.602259  3116 net.cpp:418] res2a_branch2c -> res2a_branch2c
I1129 09:34:45.603243  3116 net.cpp:150] Setting up res2a_branch2c
I1129 09:34:45.603252  3116 net.cpp:157] Top shape: 1 256 175 250 (11200000)
I1129 09:34:45.603255  3116 net.cpp:165] Memory required for data: 506800084
I1129 09:34:45.603258  3116 layer_factory.hpp:77] Creating layer bn2a_branch2c
I1129 09:34:45.603262  3116 net.cpp:100] Creating Layer bn2a_branch2c
I1129 09:34:45.603265  3116 net.cpp:444] bn2a_branch2c <- res2a_branch2c
I1129 09:34:45.603267  3116 net.cpp:405] bn2a_branch2c -> res2a_branch2c (in-place)
I1129 09:34:45.603490  3116 net.cpp:150] Setting up bn2a_branch2c
I1129 09:34:45.603494  3116 net.cpp:157] Top shape: 1 256 175 250 (11200000)
I1129 09:34:45.603497  3116 net.cpp:165] Memory required for data: 551600084
I1129 09:34:45.603502  3116 layer_factory.hpp:77] Creating layer scale2a_branch2c
I1129 09:34:45.603505  3116 net.cpp:100] Creating Layer scale2a_branch2c
I1129 09:34:45.603507  3116 net.cpp:444] scale2a_branch2c <- res2a_branch2c
I1129 09:34:45.603510  3116 net.cpp:405] scale2a_branch2c -> res2a_branch2c (in-place)
I1129 09:34:45.603543  3116 layer_factory.hpp:77] Creating layer scale2a_branch2c
I1129 09:34:45.604349  3116 net.cpp:150] Setting up scale2a_branch2c
I1129 09:34:45.604358  3116 net.cpp:157] Top shape: 1 256 175 250 (11200000)
I1129 09:34:45.604360  3116 net.cpp:165] Memory required for data: 596400084
I1129 09:34:45.604365  3116 layer_factory.hpp:77] Creating layer res2a
I1129 09:34:45.604370  3116 net.cpp:100] Creating Layer res2a
I1129 09:34:45.604372  3116 net.cpp:444] res2a <- res2a_branch1
I1129 09:34:45.604375  3116 net.cpp:444] res2a <- res2a_branch2c
I1129 09:34:45.604378  3116 net.cpp:418] res2a -> res2a
I1129 09:34:45.604410  3116 net.cpp:150] Setting up res2a
I1129 09:34:45.604414  3116 net.cpp:157] Top shape: 1 256 175 250 (11200000)
I1129 09:34:45.604415  3116 net.cpp:165] Memory required for data: 641200084
I1129 09:34:45.604418  3116 layer_factory.hpp:77] Creating layer res2a_relu
I1129 09:34:45.604423  3116 net.cpp:100] Creating Layer res2a_relu
I1129 09:34:45.604424  3116 net.cpp:444] res2a_relu <- res2a
I1129 09:34:45.604427  3116 net.cpp:405] res2a_relu -> res2a (in-place)
I1129 09:34:45.604573  3116 net.cpp:150] Setting up res2a_relu
I1129 09:34:45.604578  3116 net.cpp:157] Top shape: 1 256 175 250 (11200000)
I1129 09:34:45.604579  3116 net.cpp:165] Memory required for data: 686000084
I1129 09:34:45.604581  3116 layer_factory.hpp:77] Creating layer res2a_res2a_relu_0_split
I1129 09:34:45.604585  3116 net.cpp:100] Creating Layer res2a_res2a_relu_0_split
I1129 09:34:45.604588  3116 net.cpp:444] res2a_res2a_relu_0_split <- res2a
I1129 09:34:45.604589  3116 net.cpp:418] res2a_res2a_relu_0_split -> res2a_res2a_relu_0_split_0
I1129 09:34:45.604593  3116 net.cpp:418] res2a_res2a_relu_0_split -> res2a_res2a_relu_0_split_1
I1129 09:34:45.604636  3116 net.cpp:150] Setting up res2a_res2a_relu_0_split
I1129 09:34:45.604640  3116 net.cpp:157] Top shape: 1 256 175 250 (11200000)
I1129 09:34:45.604642  3116 net.cpp:157] Top shape: 1 256 175 250 (11200000)
I1129 09:34:45.604645  3116 net.cpp:165] Memory required for data: 775600084
I1129 09:34:45.604645  3116 layer_factory.hpp:77] Creating layer res2b_branch2a
I1129 09:34:45.604651  3116 net.cpp:100] Creating Layer res2b_branch2a
I1129 09:34:45.604653  3116 net.cpp:444] res2b_branch2a <- res2a_res2a_relu_0_split_0
I1129 09:34:45.604656  3116 net.cpp:418] res2b_branch2a -> res2b_branch2a
I1129 09:34:45.605521  3116 net.cpp:150] Setting up res2b_branch2a
I1129 09:34:45.605530  3116 net.cpp:157] Top shape: 1 64 175 250 (2800000)
I1129 09:34:45.605532  3116 net.cpp:165] Memory required for data: 786800084
I1129 09:34:45.605536  3116 layer_factory.hpp:77] Creating layer bn2b_branch2a
I1129 09:34:45.605541  3116 net.cpp:100] Creating Layer bn2b_branch2a
I1129 09:34:45.605545  3116 net.cpp:444] bn2b_branch2a <- res2b_branch2a
I1129 09:34:45.605547  3116 net.cpp:405] bn2b_branch2a -> res2b_branch2a (in-place)
I1129 09:34:45.605782  3116 net.cpp:150] Setting up bn2b_branch2a
I1129 09:34:45.605787  3116 net.cpp:157] Top shape: 1 64 175 250 (2800000)
I1129 09:34:45.605789  3116 net.cpp:165] Memory required for data: 798000084
I1129 09:34:45.605796  3116 layer_factory.hpp:77] Creating layer scale2b_branch2a
I1129 09:34:45.605801  3116 net.cpp:100] Creating Layer scale2b_branch2a
I1129 09:34:45.605804  3116 net.cpp:444] scale2b_branch2a <- res2b_branch2a
I1129 09:34:45.605808  3116 net.cpp:405] scale2b_branch2a -> res2b_branch2a (in-place)
I1129 09:34:45.605846  3116 layer_factory.hpp:77] Creating layer scale2b_branch2a
I1129 09:34:45.606009  3116 net.cpp:150] Setting up scale2b_branch2a
I1129 09:34:45.606014  3116 net.cpp:157] Top shape: 1 64 175 250 (2800000)
I1129 09:34:45.606015  3116 net.cpp:165] Memory required for data: 809200084
I1129 09:34:45.606019  3116 layer_factory.hpp:77] Creating layer res2b_branch2a_relu
I1129 09:34:45.606024  3116 net.cpp:100] Creating Layer res2b_branch2a_relu
I1129 09:34:45.606026  3116 net.cpp:444] res2b_branch2a_relu <- res2b_branch2a
I1129 09:34:45.606029  3116 net.cpp:405] res2b_branch2a_relu -> res2b_branch2a (in-place)
I1129 09:34:45.606153  3116 net.cpp:150] Setting up res2b_branch2a_relu
I1129 09:34:45.606156  3116 net.cpp:157] Top shape: 1 64 175 250 (2800000)
I1129 09:34:45.606159  3116 net.cpp:165] Memory required for data: 820400084
I1129 09:34:45.606161  3116 layer_factory.hpp:77] Creating layer res2b_branch2b
I1129 09:34:45.606166  3116 net.cpp:100] Creating Layer res2b_branch2b
I1129 09:34:45.606168  3116 net.cpp:444] res2b_branch2b <- res2b_branch2a
I1129 09:34:45.606171  3116 net.cpp:418] res2b_branch2b -> res2b_branch2b
I1129 09:34:45.607275  3116 net.cpp:150] Setting up res2b_branch2b
I1129 09:34:45.607286  3116 net.cpp:157] Top shape: 1 64 175 250 (2800000)
I1129 09:34:45.607290  3116 net.cpp:165] Memory required for data: 831600084
I1129 09:34:45.607295  3116 layer_factory.hpp:77] Creating layer bn2b_branch2b
I1129 09:34:45.607301  3116 net.cpp:100] Creating Layer bn2b_branch2b
I1129 09:34:45.607305  3116 net.cpp:444] bn2b_branch2b <- res2b_branch2b
I1129 09:34:45.607307  3116 net.cpp:405] bn2b_branch2b -> res2b_branch2b (in-place)
I1129 09:34:45.607542  3116 net.cpp:150] Setting up bn2b_branch2b
I1129 09:34:45.607547  3116 net.cpp:157] Top shape: 1 64 175 250 (2800000)
I1129 09:34:45.607548  3116 net.cpp:165] Memory required for data: 842800084
I1129 09:34:45.607553  3116 layer_factory.hpp:77] Creating layer scale2b_branch2b
I1129 09:34:45.607558  3116 net.cpp:100] Creating Layer scale2b_branch2b
I1129 09:34:45.607560  3116 net.cpp:444] scale2b_branch2b <- res2b_branch2b
I1129 09:34:45.607563  3116 net.cpp:405] scale2b_branch2b -> res2b_branch2b (in-place)
I1129 09:34:45.607599  3116 layer_factory.hpp:77] Creating layer scale2b_branch2b
I1129 09:34:45.607760  3116 net.cpp:150] Setting up scale2b_branch2b
I1129 09:34:45.607765  3116 net.cpp:157] Top shape: 1 64 175 250 (2800000)
I1129 09:34:45.607766  3116 net.cpp:165] Memory required for data: 854000084
I1129 09:34:45.607770  3116 layer_factory.hpp:77] Creating layer res2b_branch2b_relu
I1129 09:34:45.607774  3116 net.cpp:100] Creating Layer res2b_branch2b_relu
I1129 09:34:45.607775  3116 net.cpp:444] res2b_branch2b_relu <- res2b_branch2b
I1129 09:34:45.607779  3116 net.cpp:405] res2b_branch2b_relu -> res2b_branch2b (in-place)
I1129 09:34:45.607902  3116 net.cpp:150] Setting up res2b_branch2b_relu
I1129 09:34:45.607906  3116 net.cpp:157] Top shape: 1 64 175 250 (2800000)
I1129 09:34:45.607908  3116 net.cpp:165] Memory required for data: 865200084
I1129 09:34:45.607910  3116 layer_factory.hpp:77] Creating layer res2b_branch2c
I1129 09:34:45.607915  3116 net.cpp:100] Creating Layer res2b_branch2c
I1129 09:34:45.607918  3116 net.cpp:444] res2b_branch2c <- res2b_branch2b
I1129 09:34:45.607920  3116 net.cpp:418] res2b_branch2c -> res2b_branch2c
I1129 09:34:45.608700  3116 net.cpp:150] Setting up res2b_branch2c
I1129 09:34:45.608708  3116 net.cpp:157] Top shape: 1 256 175 250 (11200000)
I1129 09:34:45.608711  3116 net.cpp:165] Memory required for data: 910000084
I1129 09:34:45.608714  3116 layer_factory.hpp:77] Creating layer bn2b_branch2c
I1129 09:34:45.608718  3116 net.cpp:100] Creating Layer bn2b_branch2c
I1129 09:34:45.608721  3116 net.cpp:444] bn2b_branch2c <- res2b_branch2c
I1129 09:34:45.608724  3116 net.cpp:405] bn2b_branch2c -> res2b_branch2c (in-place)
I1129 09:34:45.608940  3116 net.cpp:150] Setting up bn2b_branch2c
I1129 09:34:45.608944  3116 net.cpp:157] Top shape: 1 256 175 250 (11200000)
I1129 09:34:45.608947  3116 net.cpp:165] Memory required for data: 954800084
I1129 09:34:45.608952  3116 layer_factory.hpp:77] Creating layer scale2b_branch2c
I1129 09:34:45.608955  3116 net.cpp:100] Creating Layer scale2b_branch2c
I1129 09:34:45.608958  3116 net.cpp:444] scale2b_branch2c <- res2b_branch2c
I1129 09:34:45.608959  3116 net.cpp:405] scale2b_branch2c -> res2b_branch2c (in-place)
I1129 09:34:45.608994  3116 layer_factory.hpp:77] Creating layer scale2b_branch2c
I1129 09:34:45.609141  3116 net.cpp:150] Setting up scale2b_branch2c
I1129 09:34:45.609145  3116 net.cpp:157] Top shape: 1 256 175 250 (11200000)
I1129 09:34:45.609148  3116 net.cpp:165] Memory required for data: 999600084
I1129 09:34:45.609151  3116 layer_factory.hpp:77] Creating layer res2b
I1129 09:34:45.609154  3116 net.cpp:100] Creating Layer res2b
I1129 09:34:45.609156  3116 net.cpp:444] res2b <- res2a_res2a_relu_0_split_1
I1129 09:34:45.609159  3116 net.cpp:444] res2b <- res2b_branch2c
I1129 09:34:45.609163  3116 net.cpp:418] res2b -> res2b
I1129 09:34:45.609184  3116 net.cpp:150] Setting up res2b
I1129 09:34:45.609187  3116 net.cpp:157] Top shape: 1 256 175 250 (11200000)
I1129 09:34:45.609189  3116 net.cpp:165] Memory required for data: 1044400084
I1129 09:34:45.609191  3116 layer_factory.hpp:77] Creating layer res2b_relu
I1129 09:34:45.609194  3116 net.cpp:100] Creating Layer res2b_relu
I1129 09:34:45.609195  3116 net.cpp:444] res2b_relu <- res2b
I1129 09:34:45.609199  3116 net.cpp:405] res2b_relu -> res2b (in-place)
I1129 09:34:45.609313  3116 net.cpp:150] Setting up res2b_relu
I1129 09:34:45.609318  3116 net.cpp:157] Top shape: 1 256 175 250 (11200000)
I1129 09:34:45.609319  3116 net.cpp:165] Memory required for data: 1089200084
I1129 09:34:45.609321  3116 layer_factory.hpp:77] Creating layer res2b_res2b_relu_0_split
I1129 09:34:45.609325  3116 net.cpp:100] Creating Layer res2b_res2b_relu_0_split
I1129 09:34:45.609328  3116 net.cpp:444] res2b_res2b_relu_0_split <- res2b
I1129 09:34:45.609331  3116 net.cpp:418] res2b_res2b_relu_0_split -> res2b_res2b_relu_0_split_0
I1129 09:34:45.609334  3116 net.cpp:418] res2b_res2b_relu_0_split -> res2b_res2b_relu_0_split_1
I1129 09:34:45.609372  3116 net.cpp:150] Setting up res2b_res2b_relu_0_split
I1129 09:34:45.609376  3116 net.cpp:157] Top shape: 1 256 175 250 (11200000)
I1129 09:34:45.609378  3116 net.cpp:157] Top shape: 1 256 175 250 (11200000)
I1129 09:34:45.609380  3116 net.cpp:165] Memory required for data: 1178800084
I1129 09:34:45.609382  3116 layer_factory.hpp:77] Creating layer res2c_branch2a
I1129 09:34:45.609386  3116 net.cpp:100] Creating Layer res2c_branch2a
I1129 09:34:45.609390  3116 net.cpp:444] res2c_branch2a <- res2b_res2b_relu_0_split_0
I1129 09:34:45.609392  3116 net.cpp:418] res2c_branch2a -> res2c_branch2a
I1129 09:34:45.610361  3116 net.cpp:150] Setting up res2c_branch2a
I1129 09:34:45.610369  3116 net.cpp:157] Top shape: 1 64 175 250 (2800000)
I1129 09:34:45.610373  3116 net.cpp:165] Memory required for data: 1190000084
I1129 09:34:45.610376  3116 layer_factory.hpp:77] Creating layer bn2c_branch2a
I1129 09:34:45.610380  3116 net.cpp:100] Creating Layer bn2c_branch2a
I1129 09:34:45.610383  3116 net.cpp:444] bn2c_branch2a <- res2c_branch2a
I1129 09:34:45.610386  3116 net.cpp:405] bn2c_branch2a -> res2c_branch2a (in-place)
I1129 09:34:45.610617  3116 net.cpp:150] Setting up bn2c_branch2a
I1129 09:34:45.610622  3116 net.cpp:157] Top shape: 1 64 175 250 (2800000)
I1129 09:34:45.610625  3116 net.cpp:165] Memory required for data: 1201200084
I1129 09:34:45.610630  3116 layer_factory.hpp:77] Creating layer scale2c_branch2a
I1129 09:34:45.610633  3116 net.cpp:100] Creating Layer scale2c_branch2a
I1129 09:34:45.610636  3116 net.cpp:444] scale2c_branch2a <- res2c_branch2a
I1129 09:34:45.610640  3116 net.cpp:405] scale2c_branch2a -> res2c_branch2a (in-place)
I1129 09:34:45.610676  3116 layer_factory.hpp:77] Creating layer scale2c_branch2a
I1129 09:34:45.611491  3116 net.cpp:150] Setting up scale2c_branch2a
I1129 09:34:45.611500  3116 net.cpp:157] Top shape: 1 64 175 250 (2800000)
I1129 09:34:45.611502  3116 net.cpp:165] Memory required for data: 1212400084
I1129 09:34:45.611507  3116 layer_factory.hpp:77] Creating layer res2c_branch2a_relu
I1129 09:34:45.611512  3116 net.cpp:100] Creating Layer res2c_branch2a_relu
I1129 09:34:45.611515  3116 net.cpp:444] res2c_branch2a_relu <- res2c_branch2a
I1129 09:34:45.611517  3116 net.cpp:405] res2c_branch2a_relu -> res2c_branch2a (in-place)
I1129 09:34:45.611865  3116 net.cpp:150] Setting up res2c_branch2a_relu
I1129 09:34:45.611872  3116 net.cpp:157] Top shape: 1 64 175 250 (2800000)
I1129 09:34:45.611874  3116 net.cpp:165] Memory required for data: 1223600084
I1129 09:34:45.611877  3116 layer_factory.hpp:77] Creating layer res2c_branch2b
I1129 09:34:45.611882  3116 net.cpp:100] Creating Layer res2c_branch2b
I1129 09:34:45.611884  3116 net.cpp:444] res2c_branch2b <- res2c_branch2a
I1129 09:34:45.611888  3116 net.cpp:418] res2c_branch2b -> res2c_branch2b
I1129 09:34:45.612457  3116 net.cpp:150] Setting up res2c_branch2b
I1129 09:34:45.612464  3116 net.cpp:157] Top shape: 1 64 175 250 (2800000)
I1129 09:34:45.612467  3116 net.cpp:165] Memory required for data: 1234800084
I1129 09:34:45.612469  3116 layer_factory.hpp:77] Creating layer bn2c_branch2b
I1129 09:34:45.612473  3116 net.cpp:100] Creating Layer bn2c_branch2b
I1129 09:34:45.612475  3116 net.cpp:444] bn2c_branch2b <- res2c_branch2b
I1129 09:34:45.612478  3116 net.cpp:405] bn2c_branch2b -> res2c_branch2b (in-place)
I1129 09:34:45.612699  3116 net.cpp:150] Setting up bn2c_branch2b
I1129 09:34:45.612704  3116 net.cpp:157] Top shape: 1 64 175 250 (2800000)
I1129 09:34:45.612705  3116 net.cpp:165] Memory required for data: 1246000084
I1129 09:34:45.612710  3116 layer_factory.hpp:77] Creating layer scale2c_branch2b
I1129 09:34:45.612715  3116 net.cpp:100] Creating Layer scale2c_branch2b
I1129 09:34:45.612716  3116 net.cpp:444] scale2c_branch2b <- res2c_branch2b
I1129 09:34:45.612720  3116 net.cpp:405] scale2c_branch2b -> res2c_branch2b (in-place)
I1129 09:34:45.612754  3116 layer_factory.hpp:77] Creating layer scale2c_branch2b
I1129 09:34:45.612912  3116 net.cpp:150] Setting up scale2c_branch2b
I1129 09:34:45.612916  3116 net.cpp:157] Top shape: 1 64 175 250 (2800000)
I1129 09:34:45.612918  3116 net.cpp:165] Memory required for data: 1257200084
I1129 09:34:45.612922  3116 layer_factory.hpp:77] Creating layer res2c_branch2b_relu
I1129 09:34:45.612926  3116 net.cpp:100] Creating Layer res2c_branch2b_relu
I1129 09:34:45.612927  3116 net.cpp:444] res2c_branch2b_relu <- res2c_branch2b
I1129 09:34:45.612931  3116 net.cpp:405] res2c_branch2b_relu -> res2c_branch2b (in-place)
I1129 09:34:45.613257  3116 net.cpp:150] Setting up res2c_branch2b_relu
I1129 09:34:45.613265  3116 net.cpp:157] Top shape: 1 64 175 250 (2800000)
I1129 09:34:45.613266  3116 net.cpp:165] Memory required for data: 1268400084
I1129 09:34:45.613268  3116 layer_factory.hpp:77] Creating layer res2c_branch2c
I1129 09:34:45.613273  3116 net.cpp:100] Creating Layer res2c_branch2c
I1129 09:34:45.613276  3116 net.cpp:444] res2c_branch2c <- res2c_branch2b
I1129 09:34:45.613279  3116 net.cpp:418] res2c_branch2c -> res2c_branch2c
I1129 09:34:45.614251  3116 net.cpp:150] Setting up res2c_branch2c
I1129 09:34:45.614259  3116 net.cpp:157] Top shape: 1 256 175 250 (11200000)
I1129 09:34:45.614261  3116 net.cpp:165] Memory required for data: 1313200084
I1129 09:34:45.614264  3116 layer_factory.hpp:77] Creating layer bn2c_branch2c
I1129 09:34:45.614269  3116 net.cpp:100] Creating Layer bn2c_branch2c
I1129 09:34:45.614270  3116 net.cpp:444] bn2c_branch2c <- res2c_branch2c
I1129 09:34:45.614274  3116 net.cpp:405] bn2c_branch2c -> res2c_branch2c (in-place)
I1129 09:34:45.614497  3116 net.cpp:150] Setting up bn2c_branch2c
I1129 09:34:45.614502  3116 net.cpp:157] Top shape: 1 256 175 250 (11200000)
I1129 09:34:45.614503  3116 net.cpp:165] Memory required for data: 1358000084
I1129 09:34:45.614508  3116 layer_factory.hpp:77] Creating layer scale2c_branch2c
I1129 09:34:45.614512  3116 net.cpp:100] Creating Layer scale2c_branch2c
I1129 09:34:45.614514  3116 net.cpp:444] scale2c_branch2c <- res2c_branch2c
I1129 09:34:45.614517  3116 net.cpp:405] scale2c_branch2c -> res2c_branch2c (in-place)
I1129 09:34:45.614552  3116 layer_factory.hpp:77] Creating layer scale2c_branch2c
I1129 09:34:45.614701  3116 net.cpp:150] Setting up scale2c_branch2c
I1129 09:34:45.614706  3116 net.cpp:157] Top shape: 1 256 175 250 (11200000)
I1129 09:34:45.614707  3116 net.cpp:165] Memory required for data: 1402800084
I1129 09:34:45.614715  3116 layer_factory.hpp:77] Creating layer res2c
I1129 09:34:45.614718  3116 net.cpp:100] Creating Layer res2c
I1129 09:34:45.614722  3116 net.cpp:444] res2c <- res2b_res2b_relu_0_split_1
I1129 09:34:45.614724  3116 net.cpp:444] res2c <- res2c_branch2c
I1129 09:34:45.614727  3116 net.cpp:418] res2c -> res2c
I1129 09:34:45.614749  3116 net.cpp:150] Setting up res2c
I1129 09:34:45.614753  3116 net.cpp:157] Top shape: 1 256 175 250 (11200000)
I1129 09:34:45.614755  3116 net.cpp:165] Memory required for data: 1447600084
I1129 09:34:45.614758  3116 layer_factory.hpp:77] Creating layer res2c_relu
I1129 09:34:45.614760  3116 net.cpp:100] Creating Layer res2c_relu
I1129 09:34:45.614763  3116 net.cpp:444] res2c_relu <- res2c
I1129 09:34:45.614764  3116 net.cpp:405] res2c_relu -> res2c (in-place)
I1129 09:34:45.614895  3116 net.cpp:150] Setting up res2c_relu
I1129 09:34:45.614900  3116 net.cpp:157] Top shape: 1 256 175 250 (11200000)
I1129 09:34:45.614902  3116 net.cpp:165] Memory required for data: 1492400084
I1129 09:34:45.614904  3116 layer_factory.hpp:77] Creating layer res2c_res2c_relu_0_split
I1129 09:34:45.614908  3116 net.cpp:100] Creating Layer res2c_res2c_relu_0_split
I1129 09:34:45.614910  3116 net.cpp:444] res2c_res2c_relu_0_split <- res2c
I1129 09:34:45.614913  3116 net.cpp:418] res2c_res2c_relu_0_split -> res2c_res2c_relu_0_split_0
I1129 09:34:45.614917  3116 net.cpp:418] res2c_res2c_relu_0_split -> res2c_res2c_relu_0_split_1
I1129 09:34:45.614956  3116 net.cpp:150] Setting up res2c_res2c_relu_0_split
I1129 09:34:45.614960  3116 net.cpp:157] Top shape: 1 256 175 250 (11200000)
I1129 09:34:45.614964  3116 net.cpp:157] Top shape: 1 256 175 250 (11200000)
I1129 09:34:45.614964  3116 net.cpp:165] Memory required for data: 1582000084
I1129 09:34:45.614967  3116 layer_factory.hpp:77] Creating layer res3a_branch1
I1129 09:34:45.614971  3116 net.cpp:100] Creating Layer res3a_branch1
I1129 09:34:45.614974  3116 net.cpp:444] res3a_branch1 <- res2c_res2c_relu_0_split_0
I1129 09:34:45.614977  3116 net.cpp:418] res3a_branch1 -> res3a_branch1
I1129 09:34:45.616024  3116 net.cpp:150] Setting up res3a_branch1
I1129 09:34:45.616032  3116 net.cpp:157] Top shape: 1 512 88 125 (5632000)
I1129 09:34:45.616035  3116 net.cpp:165] Memory required for data: 1604528084
I1129 09:34:45.616039  3116 layer_factory.hpp:77] Creating layer bn3a_branch1
I1129 09:34:45.616044  3116 net.cpp:100] Creating Layer bn3a_branch1
I1129 09:34:45.616047  3116 net.cpp:444] bn3a_branch1 <- res3a_branch1
I1129 09:34:45.616050  3116 net.cpp:405] bn3a_branch1 -> res3a_branch1 (in-place)
I1129 09:34:45.616925  3116 net.cpp:150] Setting up bn3a_branch1
I1129 09:34:45.616933  3116 net.cpp:157] Top shape: 1 512 88 125 (5632000)
I1129 09:34:45.616936  3116 net.cpp:165] Memory required for data: 1627056084
I1129 09:34:45.616941  3116 layer_factory.hpp:77] Creating layer scale3a_branch1
I1129 09:34:45.616947  3116 net.cpp:100] Creating Layer scale3a_branch1
I1129 09:34:45.616950  3116 net.cpp:444] scale3a_branch1 <- res3a_branch1
I1129 09:34:45.616953  3116 net.cpp:405] scale3a_branch1 -> res3a_branch1 (in-place)
I1129 09:34:45.616986  3116 layer_factory.hpp:77] Creating layer scale3a_branch1
I1129 09:34:45.617123  3116 net.cpp:150] Setting up scale3a_branch1
I1129 09:34:45.617127  3116 net.cpp:157] Top shape: 1 512 88 125 (5632000)
I1129 09:34:45.617130  3116 net.cpp:165] Memory required for data: 1649584084
I1129 09:34:45.617133  3116 layer_factory.hpp:77] Creating layer res3a_branch2a
I1129 09:34:45.617138  3116 net.cpp:100] Creating Layer res3a_branch2a
I1129 09:34:45.617142  3116 net.cpp:444] res3a_branch2a <- res2c_res2c_relu_0_split_1
I1129 09:34:45.617146  3116 net.cpp:418] res3a_branch2a -> res3a_branch2a
I1129 09:34:45.617985  3116 net.cpp:150] Setting up res3a_branch2a
I1129 09:34:45.617993  3116 net.cpp:157] Top shape: 1 128 88 125 (1408000)
I1129 09:34:45.617996  3116 net.cpp:165] Memory required for data: 1655216084
I1129 09:34:45.618000  3116 layer_factory.hpp:77] Creating layer bn3a_branch2a
I1129 09:34:45.618005  3116 net.cpp:100] Creating Layer bn3a_branch2a
I1129 09:34:45.618007  3116 net.cpp:444] bn3a_branch2a <- res3a_branch2a
I1129 09:34:45.618011  3116 net.cpp:405] bn3a_branch2a -> res3a_branch2a (in-place)
I1129 09:34:45.618227  3116 net.cpp:150] Setting up bn3a_branch2a
I1129 09:34:45.618230  3116 net.cpp:157] Top shape: 1 128 88 125 (1408000)
I1129 09:34:45.618232  3116 net.cpp:165] Memory required for data: 1660848084
I1129 09:34:45.618237  3116 layer_factory.hpp:77] Creating layer scale3a_branch2a
I1129 09:34:45.618242  3116 net.cpp:100] Creating Layer scale3a_branch2a
I1129 09:34:45.618244  3116 net.cpp:444] scale3a_branch2a <- res3a_branch2a
I1129 09:34:45.618247  3116 net.cpp:405] scale3a_branch2a -> res3a_branch2a (in-place)
I1129 09:34:45.618283  3116 layer_factory.hpp:77] Creating layer scale3a_branch2a
I1129 09:34:45.618412  3116 net.cpp:150] Setting up scale3a_branch2a
I1129 09:34:45.618415  3116 net.cpp:157] Top shape: 1 128 88 125 (1408000)
I1129 09:34:45.618417  3116 net.cpp:165] Memory required for data: 1666480084
I1129 09:34:45.618420  3116 layer_factory.hpp:77] Creating layer res3a_branch2a_relu
I1129 09:34:45.618424  3116 net.cpp:100] Creating Layer res3a_branch2a_relu
I1129 09:34:45.618427  3116 net.cpp:444] res3a_branch2a_relu <- res3a_branch2a
I1129 09:34:45.618428  3116 net.cpp:405] res3a_branch2a_relu -> res3a_branch2a (in-place)
I1129 09:34:45.618547  3116 net.cpp:150] Setting up res3a_branch2a_relu
I1129 09:34:45.618552  3116 net.cpp:157] Top shape: 1 128 88 125 (1408000)
I1129 09:34:45.618554  3116 net.cpp:165] Memory required for data: 1672112084
I1129 09:34:45.618556  3116 layer_factory.hpp:77] Creating layer res3a_branch2b
I1129 09:34:45.618562  3116 net.cpp:100] Creating Layer res3a_branch2b
I1129 09:34:45.618564  3116 net.cpp:444] res3a_branch2b <- res3a_branch2a
I1129 09:34:45.618567  3116 net.cpp:418] res3a_branch2b -> res3a_branch2b
I1129 09:34:45.619658  3116 net.cpp:150] Setting up res3a_branch2b
I1129 09:34:45.619668  3116 net.cpp:157] Top shape: 1 128 88 125 (1408000)
I1129 09:34:45.619670  3116 net.cpp:165] Memory required for data: 1677744084
I1129 09:34:45.619673  3116 layer_factory.hpp:77] Creating layer bn3a_branch2b
I1129 09:34:45.619678  3116 net.cpp:100] Creating Layer bn3a_branch2b
I1129 09:34:45.619680  3116 net.cpp:444] bn3a_branch2b <- res3a_branch2b
I1129 09:34:45.619683  3116 net.cpp:405] bn3a_branch2b -> res3a_branch2b (in-place)
I1129 09:34:45.619904  3116 net.cpp:150] Setting up bn3a_branch2b
I1129 09:34:45.619907  3116 net.cpp:157] Top shape: 1 128 88 125 (1408000)
I1129 09:34:45.619910  3116 net.cpp:165] Memory required for data: 1683376084
I1129 09:34:45.619915  3116 layer_factory.hpp:77] Creating layer scale3a_branch2b
I1129 09:34:45.619920  3116 net.cpp:100] Creating Layer scale3a_branch2b
I1129 09:34:45.619922  3116 net.cpp:444] scale3a_branch2b <- res3a_branch2b
I1129 09:34:45.619925  3116 net.cpp:405] scale3a_branch2b -> res3a_branch2b (in-place)
I1129 09:34:45.619961  3116 layer_factory.hpp:77] Creating layer scale3a_branch2b
I1129 09:34:45.620093  3116 net.cpp:150] Setting up scale3a_branch2b
I1129 09:34:45.620098  3116 net.cpp:157] Top shape: 1 128 88 125 (1408000)
I1129 09:34:45.620100  3116 net.cpp:165] Memory required for data: 1689008084
I1129 09:34:45.620105  3116 layer_factory.hpp:77] Creating layer res3a_branch2b_relu
I1129 09:34:45.620107  3116 net.cpp:100] Creating Layer res3a_branch2b_relu
I1129 09:34:45.620110  3116 net.cpp:444] res3a_branch2b_relu <- res3a_branch2b
I1129 09:34:45.620113  3116 net.cpp:405] res3a_branch2b_relu -> res3a_branch2b (in-place)
I1129 09:34:45.620241  3116 net.cpp:150] Setting up res3a_branch2b_relu
I1129 09:34:45.620247  3116 net.cpp:157] Top shape: 1 128 88 125 (1408000)
I1129 09:34:45.620249  3116 net.cpp:165] Memory required for data: 1694640084
I1129 09:34:45.620250  3116 layer_factory.hpp:77] Creating layer res3a_branch2c
I1129 09:34:45.620255  3116 net.cpp:100] Creating Layer res3a_branch2c
I1129 09:34:45.620257  3116 net.cpp:444] res3a_branch2c <- res3a_branch2b
I1129 09:34:45.620260  3116 net.cpp:418] res3a_branch2c -> res3a_branch2c
I1129 09:34:45.621312  3116 net.cpp:150] Setting up res3a_branch2c
I1129 09:34:45.621322  3116 net.cpp:157] Top shape: 1 512 88 125 (5632000)
I1129 09:34:45.621325  3116 net.cpp:165] Memory required for data: 1717168084
I1129 09:34:45.621328  3116 layer_factory.hpp:77] Creating layer bn3a_branch2c
I1129 09:34:45.621335  3116 net.cpp:100] Creating Layer bn3a_branch2c
I1129 09:34:45.621337  3116 net.cpp:444] bn3a_branch2c <- res3a_branch2c
I1129 09:34:45.621340  3116 net.cpp:405] bn3a_branch2c -> res3a_branch2c (in-place)
I1129 09:34:45.621578  3116 net.cpp:150] Setting up bn3a_branch2c
I1129 09:34:45.621582  3116 net.cpp:157] Top shape: 1 512 88 125 (5632000)
I1129 09:34:45.621584  3116 net.cpp:165] Memory required for data: 1739696084
I1129 09:34:45.621588  3116 layer_factory.hpp:77] Creating layer scale3a_branch2c
I1129 09:34:45.621593  3116 net.cpp:100] Creating Layer scale3a_branch2c
I1129 09:34:45.621595  3116 net.cpp:444] scale3a_branch2c <- res3a_branch2c
I1129 09:34:45.621598  3116 net.cpp:405] scale3a_branch2c -> res3a_branch2c (in-place)
I1129 09:34:45.621634  3116 layer_factory.hpp:77] Creating layer scale3a_branch2c
I1129 09:34:45.621775  3116 net.cpp:150] Setting up scale3a_branch2c
I1129 09:34:45.621780  3116 net.cpp:157] Top shape: 1 512 88 125 (5632000)
I1129 09:34:45.621783  3116 net.cpp:165] Memory required for data: 1762224084
I1129 09:34:45.621785  3116 layer_factory.hpp:77] Creating layer res3a
I1129 09:34:45.621790  3116 net.cpp:100] Creating Layer res3a
I1129 09:34:45.621793  3116 net.cpp:444] res3a <- res3a_branch1
I1129 09:34:45.621794  3116 net.cpp:444] res3a <- res3a_branch2c
I1129 09:34:45.621798  3116 net.cpp:418] res3a -> res3a
I1129 09:34:45.621820  3116 net.cpp:150] Setting up res3a
I1129 09:34:45.621824  3116 net.cpp:157] Top shape: 1 512 88 125 (5632000)
I1129 09:34:45.621826  3116 net.cpp:165] Memory required for data: 1784752084
I1129 09:34:45.621827  3116 layer_factory.hpp:77] Creating layer res3a_relu
I1129 09:34:45.621831  3116 net.cpp:100] Creating Layer res3a_relu
I1129 09:34:45.621834  3116 net.cpp:444] res3a_relu <- res3a
I1129 09:34:45.621835  3116 net.cpp:405] res3a_relu -> res3a (in-place)
I1129 09:34:45.621968  3116 net.cpp:150] Setting up res3a_relu
I1129 09:34:45.621974  3116 net.cpp:157] Top shape: 1 512 88 125 (5632000)
I1129 09:34:45.621978  3116 net.cpp:165] Memory required for data: 1807280084
I1129 09:34:45.621979  3116 layer_factory.hpp:77] Creating layer res3a_res3a_relu_0_split
I1129 09:34:45.621983  3116 net.cpp:100] Creating Layer res3a_res3a_relu_0_split
I1129 09:34:45.621985  3116 net.cpp:444] res3a_res3a_relu_0_split <- res3a
I1129 09:34:45.621989  3116 net.cpp:418] res3a_res3a_relu_0_split -> res3a_res3a_relu_0_split_0
I1129 09:34:45.621994  3116 net.cpp:418] res3a_res3a_relu_0_split -> res3a_res3a_relu_0_split_1
I1129 09:34:45.622037  3116 net.cpp:150] Setting up res3a_res3a_relu_0_split
I1129 09:34:45.622041  3116 net.cpp:157] Top shape: 1 512 88 125 (5632000)
I1129 09:34:45.622045  3116 net.cpp:157] Top shape: 1 512 88 125 (5632000)
I1129 09:34:45.622045  3116 net.cpp:165] Memory required for data: 1852336084
I1129 09:34:45.622047  3116 layer_factory.hpp:77] Creating layer res3b1_branch2a
I1129 09:34:45.622053  3116 net.cpp:100] Creating Layer res3b1_branch2a
I1129 09:34:45.622056  3116 net.cpp:444] res3b1_branch2a <- res3a_res3a_relu_0_split_0
I1129 09:34:45.622059  3116 net.cpp:418] res3b1_branch2a -> res3b1_branch2a
I1129 09:34:45.623905  3116 net.cpp:150] Setting up res3b1_branch2a
I1129 09:34:45.623924  3116 net.cpp:157] Top shape: 1 128 88 125 (1408000)
I1129 09:34:45.623926  3116 net.cpp:165] Memory required for data: 1857968084
I1129 09:34:45.623934  3116 layer_factory.hpp:77] Creating layer bn3b1_branch2a
I1129 09:34:45.623939  3116 net.cpp:100] Creating Layer bn3b1_branch2a
I1129 09:34:45.623944  3116 net.cpp:444] bn3b1_branch2a <- res3b1_branch2a
I1129 09:34:45.623950  3116 net.cpp:405] bn3b1_branch2a -> res3b1_branch2a (in-place)
I1129 09:34:45.624191  3116 net.cpp:150] Setting up bn3b1_branch2a
I1129 09:34:45.624195  3116 net.cpp:157] Top shape: 1 128 88 125 (1408000)
I1129 09:34:45.624197  3116 net.cpp:165] Memory required for data: 1863600084
I1129 09:34:45.624202  3116 layer_factory.hpp:77] Creating layer scale3b1_branch2a
I1129 09:34:45.624208  3116 net.cpp:100] Creating Layer scale3b1_branch2a
I1129 09:34:45.624212  3116 net.cpp:444] scale3b1_branch2a <- res3b1_branch2a
I1129 09:34:45.624214  3116 net.cpp:405] scale3b1_branch2a -> res3b1_branch2a (in-place)
I1129 09:34:45.624258  3116 layer_factory.hpp:77] Creating layer scale3b1_branch2a
I1129 09:34:45.624393  3116 net.cpp:150] Setting up scale3b1_branch2a
I1129 09:34:45.624397  3116 net.cpp:157] Top shape: 1 128 88 125 (1408000)
I1129 09:34:45.624399  3116 net.cpp:165] Memory required for data: 1869232084
I1129 09:34:45.624404  3116 layer_factory.hpp:77] Creating layer res3b1_branch2a_relu
I1129 09:34:45.624409  3116 net.cpp:100] Creating Layer res3b1_branch2a_relu
I1129 09:34:45.624413  3116 net.cpp:444] res3b1_branch2a_relu <- res3b1_branch2a
I1129 09:34:45.624415  3116 net.cpp:405] res3b1_branch2a_relu -> res3b1_branch2a (in-place)
I1129 09:34:45.624546  3116 net.cpp:150] Setting up res3b1_branch2a_relu
I1129 09:34:45.624550  3116 net.cpp:157] Top shape: 1 128 88 125 (1408000)
I1129 09:34:45.624552  3116 net.cpp:165] Memory required for data: 1874864084
I1129 09:34:45.624554  3116 layer_factory.hpp:77] Creating layer res3b1_branch2b
I1129 09:34:45.624562  3116 net.cpp:100] Creating Layer res3b1_branch2b
I1129 09:34:45.624564  3116 net.cpp:444] res3b1_branch2b <- res3b1_branch2a
I1129 09:34:45.624568  3116 net.cpp:418] res3b1_branch2b -> res3b1_branch2b
I1129 09:34:45.625910  3116 net.cpp:150] Setting up res3b1_branch2b
I1129 09:34:45.625918  3116 net.cpp:157] Top shape: 1 128 88 125 (1408000)
I1129 09:34:45.625921  3116 net.cpp:165] Memory required for data: 1880496084
I1129 09:34:45.625926  3116 layer_factory.hpp:77] Creating layer bn3b1_branch2b
I1129 09:34:45.625929  3116 net.cpp:100] Creating Layer bn3b1_branch2b
I1129 09:34:45.625932  3116 net.cpp:444] bn3b1_branch2b <- res3b1_branch2b
I1129 09:34:45.625937  3116 net.cpp:405] bn3b1_branch2b -> res3b1_branch2b (in-place)
I1129 09:34:45.626170  3116 net.cpp:150] Setting up bn3b1_branch2b
I1129 09:34:45.626175  3116 net.cpp:157] Top shape: 1 128 88 125 (1408000)
I1129 09:34:45.626178  3116 net.cpp:165] Memory required for data: 1886128084
I1129 09:34:45.626183  3116 layer_factory.hpp:77] Creating layer scale3b1_branch2b
I1129 09:34:45.626188  3116 net.cpp:100] Creating Layer scale3b1_branch2b
I1129 09:34:45.626190  3116 net.cpp:444] scale3b1_branch2b <- res3b1_branch2b
I1129 09:34:45.626194  3116 net.cpp:405] scale3b1_branch2b -> res3b1_branch2b (in-place)
I1129 09:34:45.626235  3116 layer_factory.hpp:77] Creating layer scale3b1_branch2b
I1129 09:34:45.626369  3116 net.cpp:150] Setting up scale3b1_branch2b
I1129 09:34:45.626374  3116 net.cpp:157] Top shape: 1 128 88 125 (1408000)
I1129 09:34:45.626376  3116 net.cpp:165] Memory required for data: 1891760084
I1129 09:34:45.626380  3116 layer_factory.hpp:77] Creating layer res3b1_branch2b_relu
I1129 09:34:45.626384  3116 net.cpp:100] Creating Layer res3b1_branch2b_relu
I1129 09:34:45.626387  3116 net.cpp:444] res3b1_branch2b_relu <- res3b1_branch2b
I1129 09:34:45.626390  3116 net.cpp:405] res3b1_branch2b_relu -> res3b1_branch2b (in-place)
I1129 09:34:45.626739  3116 net.cpp:150] Setting up res3b1_branch2b_relu
I1129 09:34:45.626746  3116 net.cpp:157] Top shape: 1 128 88 125 (1408000)
I1129 09:34:45.626749  3116 net.cpp:165] Memory required for data: 1897392084
I1129 09:34:45.626751  3116 layer_factory.hpp:77] Creating layer res3b1_branch2c
I1129 09:34:45.626757  3116 net.cpp:100] Creating Layer res3b1_branch2c
I1129 09:34:45.626760  3116 net.cpp:444] res3b1_branch2c <- res3b1_branch2b
I1129 09:34:45.626765  3116 net.cpp:418] res3b1_branch2c -> res3b1_branch2c
I1129 09:34:45.627641  3116 net.cpp:150] Setting up res3b1_branch2c
I1129 09:34:45.627650  3116 net.cpp:157] Top shape: 1 512 88 125 (5632000)
I1129 09:34:45.627652  3116 net.cpp:165] Memory required for data: 1919920084
I1129 09:34:45.627656  3116 layer_factory.hpp:77] Creating layer bn3b1_branch2c
I1129 09:34:45.627661  3116 net.cpp:100] Creating Layer bn3b1_branch2c
I1129 09:34:45.627663  3116 net.cpp:444] bn3b1_branch2c <- res3b1_branch2c
I1129 09:34:45.627667  3116 net.cpp:405] bn3b1_branch2c -> res3b1_branch2c (in-place)
I1129 09:34:45.627902  3116 net.cpp:150] Setting up bn3b1_branch2c
I1129 09:34:45.627907  3116 net.cpp:157] Top shape: 1 512 88 125 (5632000)
I1129 09:34:45.627907  3116 net.cpp:165] Memory required for data: 1942448084
I1129 09:34:45.627912  3116 layer_factory.hpp:77] Creating layer scale3b1_branch2c
I1129 09:34:45.627918  3116 net.cpp:100] Creating Layer scale3b1_branch2c
I1129 09:34:45.627919  3116 net.cpp:444] scale3b1_branch2c <- res3b1_branch2c
I1129 09:34:45.627923  3116 net.cpp:405] scale3b1_branch2c -> res3b1_branch2c (in-place)
I1129 09:34:45.627957  3116 layer_factory.hpp:77] Creating layer scale3b1_branch2c
I1129 09:34:45.628098  3116 net.cpp:150] Setting up scale3b1_branch2c
I1129 09:34:45.628103  3116 net.cpp:157] Top shape: 1 512 88 125 (5632000)
I1129 09:34:45.628104  3116 net.cpp:165] Memory required for data: 1964976084
I1129 09:34:45.628108  3116 layer_factory.hpp:77] Creating layer res3b1
I1129 09:34:45.628113  3116 net.cpp:100] Creating Layer res3b1
I1129 09:34:45.628116  3116 net.cpp:444] res3b1 <- res3a_res3a_relu_0_split_1
I1129 09:34:45.628119  3116 net.cpp:444] res3b1 <- res3b1_branch2c
I1129 09:34:45.628123  3116 net.cpp:418] res3b1 -> res3b1
I1129 09:34:45.628146  3116 net.cpp:150] Setting up res3b1
I1129 09:34:45.628150  3116 net.cpp:157] Top shape: 1 512 88 125 (5632000)
I1129 09:34:45.628152  3116 net.cpp:165] Memory required for data: 1987504084
I1129 09:34:45.628154  3116 layer_factory.hpp:77] Creating layer res3b1_relu
I1129 09:34:45.628157  3116 net.cpp:100] Creating Layer res3b1_relu
I1129 09:34:45.628159  3116 net.cpp:444] res3b1_relu <- res3b1
I1129 09:34:45.628162  3116 net.cpp:405] res3b1_relu -> res3b1 (in-place)
I1129 09:34:45.628286  3116 net.cpp:150] Setting up res3b1_relu
I1129 09:34:45.628293  3116 net.cpp:157] Top shape: 1 512 88 125 (5632000)
I1129 09:34:45.628294  3116 net.cpp:165] Memory required for data: 2010032084
I1129 09:34:45.628296  3116 layer_factory.hpp:77] Creating layer res3b1_res3b1_relu_0_split
I1129 09:34:45.628300  3116 net.cpp:100] Creating Layer res3b1_res3b1_relu_0_split
I1129 09:34:45.628303  3116 net.cpp:444] res3b1_res3b1_relu_0_split <- res3b1
I1129 09:34:45.628307  3116 net.cpp:418] res3b1_res3b1_relu_0_split -> res3b1_res3b1_relu_0_split_0
I1129 09:34:45.628312  3116 net.cpp:418] res3b1_res3b1_relu_0_split -> res3b1_res3b1_relu_0_split_1
I1129 09:34:45.628355  3116 net.cpp:150] Setting up res3b1_res3b1_relu_0_split
I1129 09:34:45.628360  3116 net.cpp:157] Top shape: 1 512 88 125 (5632000)
I1129 09:34:45.628362  3116 net.cpp:157] Top shape: 1 512 88 125 (5632000)
I1129 09:34:45.628365  3116 net.cpp:165] Memory required for data: 2055088084
I1129 09:34:45.628366  3116 layer_factory.hpp:77] Creating layer res3b2_branch2a
I1129 09:34:45.628371  3116 net.cpp:100] Creating Layer res3b2_branch2a
I1129 09:34:45.628374  3116 net.cpp:444] res3b2_branch2a <- res3b1_res3b1_relu_0_split_0
I1129 09:34:45.628377  3116 net.cpp:418] res3b2_branch2a -> res3b2_branch2a
I1129 09:34:45.629195  3116 net.cpp:150] Setting up res3b2_branch2a
I1129 09:34:45.629204  3116 net.cpp:157] Top shape: 1 128 88 125 (1408000)
I1129 09:34:45.629205  3116 net.cpp:165] Memory required for data: 2060720084
I1129 09:34:45.629209  3116 layer_factory.hpp:77] Creating layer bn3b2_branch2a
I1129 09:34:45.629214  3116 net.cpp:100] Creating Layer bn3b2_branch2a
I1129 09:34:45.629216  3116 net.cpp:444] bn3b2_branch2a <- res3b2_branch2a
I1129 09:34:45.629220  3116 net.cpp:405] bn3b2_branch2a -> res3b2_branch2a (in-place)
I1129 09:34:45.629431  3116 net.cpp:150] Setting up bn3b2_branch2a
I1129 09:34:45.629436  3116 net.cpp:157] Top shape: 1 128 88 125 (1408000)
I1129 09:34:45.629437  3116 net.cpp:165] Memory required for data: 2066352084
I1129 09:34:45.629441  3116 layer_factory.hpp:77] Creating layer scale3b2_branch2a
I1129 09:34:45.629446  3116 net.cpp:100] Creating Layer scale3b2_branch2a
I1129 09:34:45.629447  3116 net.cpp:444] scale3b2_branch2a <- res3b2_branch2a
I1129 09:34:45.629451  3116 net.cpp:405] scale3b2_branch2a -> res3b2_branch2a (in-place)
I1129 09:34:45.629489  3116 layer_factory.hpp:77] Creating layer scale3b2_branch2a
I1129 09:34:45.629613  3116 net.cpp:150] Setting up scale3b2_branch2a
I1129 09:34:45.629617  3116 net.cpp:157] Top shape: 1 128 88 125 (1408000)
I1129 09:34:45.629619  3116 net.cpp:165] Memory required for data: 2071984084
I1129 09:34:45.629622  3116 layer_factory.hpp:77] Creating layer res3b2_branch2a_relu
I1129 09:34:45.629626  3116 net.cpp:100] Creating Layer res3b2_branch2a_relu
I1129 09:34:45.629628  3116 net.cpp:444] res3b2_branch2a_relu <- res3b2_branch2a
I1129 09:34:45.629631  3116 net.cpp:405] res3b2_branch2a_relu -> res3b2_branch2a (in-place)
I1129 09:34:45.629747  3116 net.cpp:150] Setting up res3b2_branch2a_relu
I1129 09:34:45.629752  3116 net.cpp:157] Top shape: 1 128 88 125 (1408000)
I1129 09:34:45.629755  3116 net.cpp:165] Memory required for data: 2077616084
I1129 09:34:45.629756  3116 layer_factory.hpp:77] Creating layer res3b2_branch2b
I1129 09:34:45.629761  3116 net.cpp:100] Creating Layer res3b2_branch2b
I1129 09:34:45.629763  3116 net.cpp:444] res3b2_branch2b <- res3b2_branch2a
I1129 09:34:45.629766  3116 net.cpp:418] res3b2_branch2b -> res3b2_branch2b
I1129 09:34:45.631604  3116 net.cpp:150] Setting up res3b2_branch2b
I1129 09:34:45.631618  3116 net.cpp:157] Top shape: 1 128 88 125 (1408000)
I1129 09:34:45.631619  3116 net.cpp:165] Memory required for data: 2083248084
I1129 09:34:45.631624  3116 layer_factory.hpp:77] Creating layer bn3b2_branch2b
I1129 09:34:45.631630  3116 net.cpp:100] Creating Layer bn3b2_branch2b
I1129 09:34:45.631634  3116 net.cpp:444] bn3b2_branch2b <- res3b2_branch2b
I1129 09:34:45.631639  3116 net.cpp:405] bn3b2_branch2b -> res3b2_branch2b (in-place)
I1129 09:34:45.631866  3116 net.cpp:150] Setting up bn3b2_branch2b
I1129 09:34:45.631870  3116 net.cpp:157] Top shape: 1 128 88 125 (1408000)
I1129 09:34:45.631872  3116 net.cpp:165] Memory required for data: 2088880084
I1129 09:34:45.631876  3116 layer_factory.hpp:77] Creating layer scale3b2_branch2b
I1129 09:34:45.631881  3116 net.cpp:100] Creating Layer scale3b2_branch2b
I1129 09:34:45.631885  3116 net.cpp:444] scale3b2_branch2b <- res3b2_branch2b
I1129 09:34:45.631887  3116 net.cpp:405] scale3b2_branch2b -> res3b2_branch2b (in-place)
I1129 09:34:45.631925  3116 layer_factory.hpp:77] Creating layer scale3b2_branch2b
I1129 09:34:45.632055  3116 net.cpp:150] Setting up scale3b2_branch2b
I1129 09:34:45.632060  3116 net.cpp:157] Top shape: 1 128 88 125 (1408000)
I1129 09:34:45.632061  3116 net.cpp:165] Memory required for data: 2094512084
I1129 09:34:45.632064  3116 layer_factory.hpp:77] Creating layer res3b2_branch2b_relu
I1129 09:34:45.632069  3116 net.cpp:100] Creating Layer res3b2_branch2b_relu
I1129 09:34:45.632071  3116 net.cpp:444] res3b2_branch2b_relu <- res3b2_branch2b
I1129 09:34:45.632076  3116 net.cpp:405] res3b2_branch2b_relu -> res3b2_branch2b (in-place)
I1129 09:34:45.632197  3116 net.cpp:150] Setting up res3b2_branch2b_relu
I1129 09:34:45.632202  3116 net.cpp:157] Top shape: 1 128 88 125 (1408000)
I1129 09:34:45.632203  3116 net.cpp:165] Memory required for data: 2100144084
I1129 09:34:45.632206  3116 layer_factory.hpp:77] Creating layer res3b2_branch2c
I1129 09:34:45.632211  3116 net.cpp:100] Creating Layer res3b2_branch2c
I1129 09:34:45.632215  3116 net.cpp:444] res3b2_branch2c <- res3b2_branch2b
I1129 09:34:45.632217  3116 net.cpp:418] res3b2_branch2c -> res3b2_branch2c
I1129 09:34:45.633038  3116 net.cpp:150] Setting up res3b2_branch2c
I1129 09:34:45.633045  3116 net.cpp:157] Top shape: 1 512 88 125 (5632000)
I1129 09:34:45.633046  3116 net.cpp:165] Memory required for data: 2122672084
I1129 09:34:45.633050  3116 layer_factory.hpp:77] Creating layer bn3b2_branch2c
I1129 09:34:45.633055  3116 net.cpp:100] Creating Layer bn3b2_branch2c
I1129 09:34:45.633059  3116 net.cpp:444] bn3b2_branch2c <- res3b2_branch2c
I1129 09:34:45.633060  3116 net.cpp:405] bn3b2_branch2c -> res3b2_branch2c (in-place)
I1129 09:34:45.633280  3116 net.cpp:150] Setting up bn3b2_branch2c
I1129 09:34:45.633283  3116 net.cpp:157] Top shape: 1 512 88 125 (5632000)
I1129 09:34:45.633285  3116 net.cpp:165] Memory required for data: 2145200084
I1129 09:34:45.633289  3116 layer_factory.hpp:77] Creating layer scale3b2_branch2c
I1129 09:34:45.633293  3116 net.cpp:100] Creating Layer scale3b2_branch2c
I1129 09:34:45.633296  3116 net.cpp:444] scale3b2_branch2c <- res3b2_branch2c
I1129 09:34:45.633298  3116 net.cpp:405] scale3b2_branch2c -> res3b2_branch2c (in-place)
I1129 09:34:45.633332  3116 layer_factory.hpp:77] Creating layer scale3b2_branch2c
I1129 09:34:45.633463  3116 net.cpp:150] Setting up scale3b2_branch2c
I1129 09:34:45.633467  3116 net.cpp:157] Top shape: 1 512 88 125 (5632000)
I1129 09:34:45.633469  3116 net.cpp:165] Memory required for data: 2167728084
I1129 09:34:45.633472  3116 layer_factory.hpp:77] Creating layer res3b2
I1129 09:34:45.633476  3116 net.cpp:100] Creating Layer res3b2
I1129 09:34:45.633478  3116 net.cpp:444] res3b2 <- res3b1_res3b1_relu_0_split_1
I1129 09:34:45.633481  3116 net.cpp:444] res3b2 <- res3b2_branch2c
I1129 09:34:45.633483  3116 net.cpp:418] res3b2 -> res3b2
I1129 09:34:45.633504  3116 net.cpp:150] Setting up res3b2
I1129 09:34:45.633508  3116 net.cpp:157] Top shape: 1 512 88 125 (5632000)
I1129 09:34:45.633509  3116 net.cpp:165] Memory required for data: 2190256084
I1129 09:34:45.633512  3116 layer_factory.hpp:77] Creating layer res3b2_relu
I1129 09:34:45.633513  3116 net.cpp:100] Creating Layer res3b2_relu
I1129 09:34:45.633517  3116 net.cpp:444] res3b2_relu <- res3b2
I1129 09:34:45.633519  3116 net.cpp:405] res3b2_relu -> res3b2 (in-place)
I1129 09:34:45.633637  3116 net.cpp:150] Setting up res3b2_relu
I1129 09:34:45.633641  3116 net.cpp:157] Top shape: 1 512 88 125 (5632000)
I1129 09:34:45.633643  3116 net.cpp:165] Memory required for data: 2212784084
I1129 09:34:45.633646  3116 layer_factory.hpp:77] Creating layer res3b2_res3b2_relu_0_split
I1129 09:34:45.633649  3116 net.cpp:100] Creating Layer res3b2_res3b2_relu_0_split
I1129 09:34:45.633651  3116 net.cpp:444] res3b2_res3b2_relu_0_split <- res3b2
I1129 09:34:45.633654  3116 net.cpp:418] res3b2_res3b2_relu_0_split -> res3b2_res3b2_relu_0_split_0
I1129 09:34:45.633658  3116 net.cpp:418] res3b2_res3b2_relu_0_split -> res3b2_res3b2_relu_0_split_1
I1129 09:34:45.633697  3116 net.cpp:150] Setting up res3b2_res3b2_relu_0_split
I1129 09:34:45.633702  3116 net.cpp:157] Top shape: 1 512 88 125 (5632000)
I1129 09:34:45.633703  3116 net.cpp:157] Top shape: 1 512 88 125 (5632000)
I1129 09:34:45.633705  3116 net.cpp:165] Memory required for data: 2257840084
I1129 09:34:45.633707  3116 layer_factory.hpp:77] Creating layer res3b3_branch2a
I1129 09:34:45.633710  3116 net.cpp:100] Creating Layer res3b3_branch2a
I1129 09:34:45.633713  3116 net.cpp:444] res3b3_branch2a <- res3b2_res3b2_relu_0_split_0
I1129 09:34:45.633716  3116 net.cpp:418] res3b3_branch2a -> res3b3_branch2a
I1129 09:34:45.634521  3116 net.cpp:150] Setting up res3b3_branch2a
I1129 09:34:45.634528  3116 net.cpp:157] Top shape: 1 128 88 125 (1408000)
I1129 09:34:45.634532  3116 net.cpp:165] Memory required for data: 2263472084
I1129 09:34:45.634536  3116 layer_factory.hpp:77] Creating layer bn3b3_branch2a
I1129 09:34:45.634541  3116 net.cpp:100] Creating Layer bn3b3_branch2a
I1129 09:34:45.634542  3116 net.cpp:444] bn3b3_branch2a <- res3b3_branch2a
I1129 09:34:45.634546  3116 net.cpp:405] bn3b3_branch2a -> res3b3_branch2a (in-place)
I1129 09:34:45.634762  3116 net.cpp:150] Setting up bn3b3_branch2a
I1129 09:34:45.634766  3116 net.cpp:157] Top shape: 1 128 88 125 (1408000)
I1129 09:34:45.634768  3116 net.cpp:165] Memory required for data: 2269104084
I1129 09:34:45.634779  3116 layer_factory.hpp:77] Creating layer scale3b3_branch2a
I1129 09:34:45.634784  3116 net.cpp:100] Creating Layer scale3b3_branch2a
I1129 09:34:45.634788  3116 net.cpp:444] scale3b3_branch2a <- res3b3_branch2a
I1129 09:34:45.634790  3116 net.cpp:405] scale3b3_branch2a -> res3b3_branch2a (in-place)
I1129 09:34:45.634835  3116 layer_factory.hpp:77] Creating layer scale3b3_branch2a
I1129 09:34:45.634965  3116 net.cpp:150] Setting up scale3b3_branch2a
I1129 09:34:45.634969  3116 net.cpp:157] Top shape: 1 128 88 125 (1408000)
I1129 09:34:45.634970  3116 net.cpp:165] Memory required for data: 2274736084
I1129 09:34:45.634974  3116 layer_factory.hpp:77] Creating layer res3b3_branch2a_relu
I1129 09:34:45.634979  3116 net.cpp:100] Creating Layer res3b3_branch2a_relu
I1129 09:34:45.634980  3116 net.cpp:444] res3b3_branch2a_relu <- res3b3_branch2a
I1129 09:34:45.634984  3116 net.cpp:405] res3b3_branch2a_relu -> res3b3_branch2a (in-place)
I1129 09:34:45.635102  3116 net.cpp:150] Setting up res3b3_branch2a_relu
I1129 09:34:45.635107  3116 net.cpp:157] Top shape: 1 128 88 125 (1408000)
I1129 09:34:45.635108  3116 net.cpp:165] Memory required for data: 2280368084
I1129 09:34:45.635110  3116 layer_factory.hpp:77] Creating layer res3b3_branch2b
I1129 09:34:45.635115  3116 net.cpp:100] Creating Layer res3b3_branch2b
I1129 09:34:45.635118  3116 net.cpp:444] res3b3_branch2b <- res3b3_branch2a
I1129 09:34:45.635120  3116 net.cpp:418] res3b3_branch2b -> res3b3_branch2b
I1129 09:34:45.636164  3116 net.cpp:150] Setting up res3b3_branch2b
I1129 09:34:45.636173  3116 net.cpp:157] Top shape: 1 128 88 125 (1408000)
I1129 09:34:45.636175  3116 net.cpp:165] Memory required for data: 2286000084
I1129 09:34:45.636178  3116 layer_factory.hpp:77] Creating layer bn3b3_branch2b
I1129 09:34:45.636183  3116 net.cpp:100] Creating Layer bn3b3_branch2b
I1129 09:34:45.636184  3116 net.cpp:444] bn3b3_branch2b <- res3b3_branch2b
I1129 09:34:45.636188  3116 net.cpp:405] bn3b3_branch2b -> res3b3_branch2b (in-place)
I1129 09:34:45.636409  3116 net.cpp:150] Setting up bn3b3_branch2b
I1129 09:34:45.636412  3116 net.cpp:157] Top shape: 1 128 88 125 (1408000)
I1129 09:34:45.636415  3116 net.cpp:165] Memory required for data: 2291632084
I1129 09:34:45.636420  3116 layer_factory.hpp:77] Creating layer scale3b3_branch2b
I1129 09:34:45.636425  3116 net.cpp:100] Creating Layer scale3b3_branch2b
I1129 09:34:45.636427  3116 net.cpp:444] scale3b3_branch2b <- res3b3_branch2b
I1129 09:34:45.636430  3116 net.cpp:405] scale3b3_branch2b -> res3b3_branch2b (in-place)
I1129 09:34:45.636467  3116 layer_factory.hpp:77] Creating layer scale3b3_branch2b
I1129 09:34:45.636597  3116 net.cpp:150] Setting up scale3b3_branch2b
I1129 09:34:45.636602  3116 net.cpp:157] Top shape: 1 128 88 125 (1408000)
I1129 09:34:45.636605  3116 net.cpp:165] Memory required for data: 2297264084
I1129 09:34:45.636607  3116 layer_factory.hpp:77] Creating layer res3b3_branch2b_relu
I1129 09:34:45.636611  3116 net.cpp:100] Creating Layer res3b3_branch2b_relu
I1129 09:34:45.636613  3116 net.cpp:444] res3b3_branch2b_relu <- res3b3_branch2b
I1129 09:34:45.636616  3116 net.cpp:405] res3b3_branch2b_relu -> res3b3_branch2b (in-place)
I1129 09:34:45.636945  3116 net.cpp:150] Setting up res3b3_branch2b_relu
I1129 09:34:45.636951  3116 net.cpp:157] Top shape: 1 128 88 125 (1408000)
I1129 09:34:45.636953  3116 net.cpp:165] Memory required for data: 2302896084
I1129 09:34:45.636955  3116 layer_factory.hpp:77] Creating layer res3b3_branch2c
I1129 09:34:45.636960  3116 net.cpp:100] Creating Layer res3b3_branch2c
I1129 09:34:45.636963  3116 net.cpp:444] res3b3_branch2c <- res3b3_branch2b
I1129 09:34:45.636967  3116 net.cpp:418] res3b3_branch2c -> res3b3_branch2c
I1129 09:34:45.637784  3116 net.cpp:150] Setting up res3b3_branch2c
I1129 09:34:45.637794  3116 net.cpp:157] Top shape: 1 512 88 125 (5632000)
I1129 09:34:45.637795  3116 net.cpp:165] Memory required for data: 2325424084
I1129 09:34:45.637799  3116 layer_factory.hpp:77] Creating layer bn3b3_branch2c
I1129 09:34:45.637804  3116 net.cpp:100] Creating Layer bn3b3_branch2c
I1129 09:34:45.637805  3116 net.cpp:444] bn3b3_branch2c <- res3b3_branch2c
I1129 09:34:45.637809  3116 net.cpp:405] bn3b3_branch2c -> res3b3_branch2c (in-place)
I1129 09:34:45.638033  3116 net.cpp:150] Setting up bn3b3_branch2c
I1129 09:34:45.638038  3116 net.cpp:157] Top shape: 1 512 88 125 (5632000)
I1129 09:34:45.638039  3116 net.cpp:165] Memory required for data: 2347952084
I1129 09:34:45.638043  3116 layer_factory.hpp:77] Creating layer scale3b3_branch2c
I1129 09:34:45.638048  3116 net.cpp:100] Creating Layer scale3b3_branch2c
I1129 09:34:45.638051  3116 net.cpp:444] scale3b3_branch2c <- res3b3_branch2c
I1129 09:34:45.638054  3116 net.cpp:405] scale3b3_branch2c -> res3b3_branch2c (in-place)
I1129 09:34:45.638089  3116 layer_factory.hpp:77] Creating layer scale3b3_branch2c
I1129 09:34:45.638846  3116 net.cpp:150] Setting up scale3b3_branch2c
I1129 09:34:45.638854  3116 net.cpp:157] Top shape: 1 512 88 125 (5632000)
I1129 09:34:45.638856  3116 net.cpp:165] Memory required for data: 2370480084
I1129 09:34:45.638860  3116 layer_factory.hpp:77] Creating layer res3b3
I1129 09:34:45.638865  3116 net.cpp:100] Creating Layer res3b3
I1129 09:34:45.638869  3116 net.cpp:444] res3b3 <- res3b2_res3b2_relu_0_split_1
I1129 09:34:45.638871  3116 net.cpp:444] res3b3 <- res3b3_branch2c
I1129 09:34:45.638875  3116 net.cpp:418] res3b3 -> res3b3
I1129 09:34:45.638900  3116 net.cpp:150] Setting up res3b3
I1129 09:34:45.638903  3116 net.cpp:157] Top shape: 1 512 88 125 (5632000)
I1129 09:34:45.638906  3116 net.cpp:165] Memory required for data: 2393008084
I1129 09:34:45.638907  3116 layer_factory.hpp:77] Creating layer res3b3_relu
I1129 09:34:45.638911  3116 net.cpp:100] Creating Layer res3b3_relu
I1129 09:34:45.638913  3116 net.cpp:444] res3b3_relu <- res3b3
I1129 09:34:45.638916  3116 net.cpp:405] res3b3_relu -> res3b3 (in-place)
I1129 09:34:45.639046  3116 net.cpp:150] Setting up res3b3_relu
I1129 09:34:45.639051  3116 net.cpp:157] Top shape: 1 512 88 125 (5632000)
I1129 09:34:45.639053  3116 net.cpp:165] Memory required for data: 2415536084
I1129 09:34:45.639055  3116 layer_factory.hpp:77] Creating layer res3b3_res3b3_relu_0_split
I1129 09:34:45.639060  3116 net.cpp:100] Creating Layer res3b3_res3b3_relu_0_split
I1129 09:34:45.639062  3116 net.cpp:444] res3b3_res3b3_relu_0_split <- res3b3
I1129 09:34:45.639065  3116 net.cpp:418] res3b3_res3b3_relu_0_split -> res3b3_res3b3_relu_0_split_0
I1129 09:34:45.639070  3116 net.cpp:418] res3b3_res3b3_relu_0_split -> res3b3_res3b3_relu_0_split_1
I1129 09:34:45.639111  3116 net.cpp:150] Setting up res3b3_res3b3_relu_0_split
I1129 09:34:45.639114  3116 net.cpp:157] Top shape: 1 512 88 125 (5632000)
I1129 09:34:45.639117  3116 net.cpp:157] Top shape: 1 512 88 125 (5632000)
I1129 09:34:45.639119  3116 net.cpp:165] Memory required for data: 2460592084
I1129 09:34:45.639122  3116 layer_factory.hpp:77] Creating layer res4a_branch1
I1129 09:34:45.639127  3116 net.cpp:100] Creating Layer res4a_branch1
I1129 09:34:45.639129  3116 net.cpp:444] res4a_branch1 <- res3b3_res3b3_relu_0_split_0
I1129 09:34:45.639132  3116 net.cpp:418] res4a_branch1 -> res4a_branch1
I1129 09:34:45.640770  3116 net.cpp:150] Setting up res4a_branch1
I1129 09:34:45.640780  3116 net.cpp:157] Top shape: 1 1024 44 63 (2838528)
I1129 09:34:45.640782  3116 net.cpp:165] Memory required for data: 2471946196
I1129 09:34:45.640786  3116 layer_factory.hpp:77] Creating layer bn4a_branch1
I1129 09:34:45.640791  3116 net.cpp:100] Creating Layer bn4a_branch1
I1129 09:34:45.640794  3116 net.cpp:444] bn4a_branch1 <- res4a_branch1
I1129 09:34:45.640799  3116 net.cpp:405] bn4a_branch1 -> res4a_branch1 (in-place)
I1129 09:34:45.641021  3116 net.cpp:150] Setting up bn4a_branch1
I1129 09:34:45.641026  3116 net.cpp:157] Top shape: 1 1024 44 63 (2838528)
I1129 09:34:45.641028  3116 net.cpp:165] Memory required for data: 2483300308
I1129 09:34:45.641033  3116 layer_factory.hpp:77] Creating layer scale4a_branch1
I1129 09:34:45.641037  3116 net.cpp:100] Creating Layer scale4a_branch1
I1129 09:34:45.641039  3116 net.cpp:444] scale4a_branch1 <- res4a_branch1
I1129 09:34:45.641043  3116 net.cpp:405] scale4a_branch1 -> res4a_branch1 (in-place)
I1129 09:34:45.641079  3116 layer_factory.hpp:77] Creating layer scale4a_branch1
I1129 09:34:45.641216  3116 net.cpp:150] Setting up scale4a_branch1
I1129 09:34:45.641222  3116 net.cpp:157] Top shape: 1 1024 44 63 (2838528)
I1129 09:34:45.641222  3116 net.cpp:165] Memory required for data: 2494654420
I1129 09:34:45.641227  3116 layer_factory.hpp:77] Creating layer res4a_branch2a
I1129 09:34:45.641230  3116 net.cpp:100] Creating Layer res4a_branch2a
I1129 09:34:45.641233  3116 net.cpp:444] res4a_branch2a <- res3b3_res3b3_relu_0_split_1
I1129 09:34:45.641237  3116 net.cpp:418] res4a_branch2a -> res4a_branch2a
I1129 09:34:45.642104  3116 net.cpp:150] Setting up res4a_branch2a
I1129 09:34:45.642112  3116 net.cpp:157] Top shape: 1 256 44 63 (709632)
I1129 09:34:45.642114  3116 net.cpp:165] Memory required for data: 2497492948
I1129 09:34:45.642117  3116 layer_factory.hpp:77] Creating layer bn4a_branch2a
I1129 09:34:45.642123  3116 net.cpp:100] Creating Layer bn4a_branch2a
I1129 09:34:45.642127  3116 net.cpp:444] bn4a_branch2a <- res4a_branch2a
I1129 09:34:45.642129  3116 net.cpp:405] bn4a_branch2a -> res4a_branch2a (in-place)
I1129 09:34:45.642349  3116 net.cpp:150] Setting up bn4a_branch2a
I1129 09:34:45.642352  3116 net.cpp:157] Top shape: 1 256 44 63 (709632)
I1129 09:34:45.642354  3116 net.cpp:165] Memory required for data: 2500331476
I1129 09:34:45.642359  3116 layer_factory.hpp:77] Creating layer scale4a_branch2a
I1129 09:34:45.642364  3116 net.cpp:100] Creating Layer scale4a_branch2a
I1129 09:34:45.642365  3116 net.cpp:444] scale4a_branch2a <- res4a_branch2a
I1129 09:34:45.642369  3116 net.cpp:405] scale4a_branch2a -> res4a_branch2a (in-place)
I1129 09:34:45.642405  3116 layer_factory.hpp:77] Creating layer scale4a_branch2a
I1129 09:34:45.642529  3116 net.cpp:150] Setting up scale4a_branch2a
I1129 09:34:45.642532  3116 net.cpp:157] Top shape: 1 256 44 63 (709632)
I1129 09:34:45.642534  3116 net.cpp:165] Memory required for data: 2503170004
I1129 09:34:45.642537  3116 layer_factory.hpp:77] Creating layer res4a_branch2a_relu
I1129 09:34:45.642541  3116 net.cpp:100] Creating Layer res4a_branch2a_relu
I1129 09:34:45.642544  3116 net.cpp:444] res4a_branch2a_relu <- res4a_branch2a
I1129 09:34:45.642547  3116 net.cpp:405] res4a_branch2a_relu -> res4a_branch2a (in-place)
I1129 09:34:45.642670  3116 net.cpp:150] Setting up res4a_branch2a_relu
I1129 09:34:45.642675  3116 net.cpp:157] Top shape: 1 256 44 63 (709632)
I1129 09:34:45.642678  3116 net.cpp:165] Memory required for data: 2506008532
I1129 09:34:45.642679  3116 layer_factory.hpp:77] Creating layer res4a_branch2b
I1129 09:34:45.642683  3116 net.cpp:100] Creating Layer res4a_branch2b
I1129 09:34:45.642686  3116 net.cpp:444] res4a_branch2b <- res4a_branch2a
I1129 09:34:45.642689  3116 net.cpp:418] res4a_branch2b -> res4a_branch2b
I1129 09:34:45.644642  3116 net.cpp:150] Setting up res4a_branch2b
I1129 09:34:45.644654  3116 net.cpp:157] Top shape: 1 256 44 63 (709632)
I1129 09:34:45.644657  3116 net.cpp:165] Memory required for data: 2508847060
I1129 09:34:45.644665  3116 layer_factory.hpp:77] Creating layer bn4a_branch2b
I1129 09:34:45.644670  3116 net.cpp:100] Creating Layer bn4a_branch2b
I1129 09:34:45.644673  3116 net.cpp:444] bn4a_branch2b <- res4a_branch2b
I1129 09:34:45.644676  3116 net.cpp:405] bn4a_branch2b -> res4a_branch2b (in-place)
I1129 09:34:45.644908  3116 net.cpp:150] Setting up bn4a_branch2b
I1129 09:34:45.644913  3116 net.cpp:157] Top shape: 1 256 44 63 (709632)
I1129 09:34:45.644914  3116 net.cpp:165] Memory required for data: 2511685588
I1129 09:34:45.644918  3116 layer_factory.hpp:77] Creating layer scale4a_branch2b
I1129 09:34:45.644923  3116 net.cpp:100] Creating Layer scale4a_branch2b
I1129 09:34:45.644925  3116 net.cpp:444] scale4a_branch2b <- res4a_branch2b
I1129 09:34:45.644928  3116 net.cpp:405] scale4a_branch2b -> res4a_branch2b (in-place)
I1129 09:34:45.644968  3116 layer_factory.hpp:77] Creating layer scale4a_branch2b
I1129 09:34:45.645095  3116 net.cpp:150] Setting up scale4a_branch2b
I1129 09:34:45.645099  3116 net.cpp:157] Top shape: 1 256 44 63 (709632)
I1129 09:34:45.645100  3116 net.cpp:165] Memory required for data: 2514524116
I1129 09:34:45.645103  3116 layer_factory.hpp:77] Creating layer res4a_branch2b_relu
I1129 09:34:45.645107  3116 net.cpp:100] Creating Layer res4a_branch2b_relu
I1129 09:34:45.645109  3116 net.cpp:444] res4a_branch2b_relu <- res4a_branch2b
I1129 09:34:45.645112  3116 net.cpp:405] res4a_branch2b_relu -> res4a_branch2b (in-place)
I1129 09:34:45.645236  3116 net.cpp:150] Setting up res4a_branch2b_relu
I1129 09:34:45.645241  3116 net.cpp:157] Top shape: 1 256 44 63 (709632)
I1129 09:34:45.645243  3116 net.cpp:165] Memory required for data: 2517362644
I1129 09:34:45.645246  3116 layer_factory.hpp:77] Creating layer res4a_branch2c
I1129 09:34:45.645251  3116 net.cpp:100] Creating Layer res4a_branch2c
I1129 09:34:45.645252  3116 net.cpp:444] res4a_branch2c <- res4a_branch2b
I1129 09:34:45.645256  3116 net.cpp:418] res4a_branch2c -> res4a_branch2c
I1129 09:34:45.646945  3116 net.cpp:150] Setting up res4a_branch2c
I1129 09:34:45.646960  3116 net.cpp:157] Top shape: 1 1024 44 63 (2838528)
I1129 09:34:45.646962  3116 net.cpp:165] Memory required for data: 2528716756
I1129 09:34:45.646967  3116 layer_factory.hpp:77] Creating layer bn4a_branch2c
I1129 09:34:45.646972  3116 net.cpp:100] Creating Layer bn4a_branch2c
I1129 09:34:45.646975  3116 net.cpp:444] bn4a_branch2c <- res4a_branch2c
I1129 09:34:45.646980  3116 net.cpp:405] bn4a_branch2c -> res4a_branch2c (in-place)
I1129 09:34:45.647220  3116 net.cpp:150] Setting up bn4a_branch2c
I1129 09:34:45.647225  3116 net.cpp:157] Top shape: 1 1024 44 63 (2838528)
I1129 09:34:45.647227  3116 net.cpp:165] Memory required for data: 2540070868
I1129 09:34:45.647230  3116 layer_factory.hpp:77] Creating layer scale4a_branch2c
I1129 09:34:45.647235  3116 net.cpp:100] Creating Layer scale4a_branch2c
I1129 09:34:45.647238  3116 net.cpp:444] scale4a_branch2c <- res4a_branch2c
I1129 09:34:45.647240  3116 net.cpp:405] scale4a_branch2c -> res4a_branch2c (in-place)
I1129 09:34:45.647279  3116 layer_factory.hpp:77] Creating layer scale4a_branch2c
I1129 09:34:45.647408  3116 net.cpp:150] Setting up scale4a_branch2c
I1129 09:34:45.647411  3116 net.cpp:157] Top shape: 1 1024 44 63 (2838528)
I1129 09:34:45.647413  3116 net.cpp:165] Memory required for data: 2551424980
I1129 09:34:45.647416  3116 layer_factory.hpp:77] Creating layer res4a
I1129 09:34:45.647424  3116 net.cpp:100] Creating Layer res4a
I1129 09:34:45.647426  3116 net.cpp:444] res4a <- res4a_branch1
I1129 09:34:45.647428  3116 net.cpp:444] res4a <- res4a_branch2c
I1129 09:34:45.647431  3116 net.cpp:418] res4a -> res4a
I1129 09:34:45.647454  3116 net.cpp:150] Setting up res4a
I1129 09:34:45.647457  3116 net.cpp:157] Top shape: 1 1024 44 63 (2838528)
I1129 09:34:45.647459  3116 net.cpp:165] Memory required for data: 2562779092
I1129 09:34:45.647461  3116 layer_factory.hpp:77] Creating layer res4a_relu
I1129 09:34:45.647464  3116 net.cpp:100] Creating Layer res4a_relu
I1129 09:34:45.647465  3116 net.cpp:444] res4a_relu <- res4a
I1129 09:34:45.647469  3116 net.cpp:405] res4a_relu -> res4a (in-place)
I1129 09:34:45.647596  3116 net.cpp:150] Setting up res4a_relu
I1129 09:34:45.647601  3116 net.cpp:157] Top shape: 1 1024 44 63 (2838528)
I1129 09:34:45.647603  3116 net.cpp:165] Memory required for data: 2574133204
I1129 09:34:45.647604  3116 layer_factory.hpp:77] Creating layer res4a_res4a_relu_0_split
I1129 09:34:45.647608  3116 net.cpp:100] Creating Layer res4a_res4a_relu_0_split
I1129 09:34:45.647610  3116 net.cpp:444] res4a_res4a_relu_0_split <- res4a
I1129 09:34:45.647614  3116 net.cpp:418] res4a_res4a_relu_0_split -> res4a_res4a_relu_0_split_0
I1129 09:34:45.647617  3116 net.cpp:418] res4a_res4a_relu_0_split -> res4a_res4a_relu_0_split_1
I1129 09:34:45.647658  3116 net.cpp:150] Setting up res4a_res4a_relu_0_split
I1129 09:34:45.647662  3116 net.cpp:157] Top shape: 1 1024 44 63 (2838528)
I1129 09:34:45.647665  3116 net.cpp:157] Top shape: 1 1024 44 63 (2838528)
I1129 09:34:45.647666  3116 net.cpp:165] Memory required for data: 2596841428
I1129 09:34:45.647668  3116 layer_factory.hpp:77] Creating layer res4b1_branch2a
I1129 09:34:45.647673  3116 net.cpp:100] Creating Layer res4b1_branch2a
I1129 09:34:45.647675  3116 net.cpp:444] res4b1_branch2a <- res4a_res4a_relu_0_split_0
I1129 09:34:45.647678  3116 net.cpp:418] res4b1_branch2a -> res4b1_branch2a
I1129 09:34:45.648617  3116 net.cpp:150] Setting up res4b1_branch2a
I1129 09:34:45.648625  3116 net.cpp:157] Top shape: 1 256 44 63 (709632)
I1129 09:34:45.648627  3116 net.cpp:165] Memory required for data: 2599679956
I1129 09:34:45.648632  3116 layer_factory.hpp:77] Creating layer bn4b1_branch2a
I1129 09:34:45.648636  3116 net.cpp:100] Creating Layer bn4b1_branch2a
I1129 09:34:45.648639  3116 net.cpp:444] bn4b1_branch2a <- res4b1_branch2a
I1129 09:34:45.648643  3116 net.cpp:405] bn4b1_branch2a -> res4b1_branch2a (in-place)
I1129 09:34:45.648862  3116 net.cpp:150] Setting up bn4b1_branch2a
I1129 09:34:45.648867  3116 net.cpp:157] Top shape: 1 256 44 63 (709632)
I1129 09:34:45.648869  3116 net.cpp:165] Memory required for data: 2602518484
I1129 09:34:45.648872  3116 layer_factory.hpp:77] Creating layer scale4b1_branch2a
I1129 09:34:45.648877  3116 net.cpp:100] Creating Layer scale4b1_branch2a
I1129 09:34:45.648880  3116 net.cpp:444] scale4b1_branch2a <- res4b1_branch2a
I1129 09:34:45.648882  3116 net.cpp:405] scale4b1_branch2a -> res4b1_branch2a (in-place)
I1129 09:34:45.648921  3116 layer_factory.hpp:77] Creating layer scale4b1_branch2a
I1129 09:34:45.649042  3116 net.cpp:150] Setting up scale4b1_branch2a
I1129 09:34:45.649046  3116 net.cpp:157] Top shape: 1 256 44 63 (709632)
I1129 09:34:45.649049  3116 net.cpp:165] Memory required for data: 2605357012
I1129 09:34:45.649052  3116 layer_factory.hpp:77] Creating layer res4b1_branch2a_relu
I1129 09:34:45.649056  3116 net.cpp:100] Creating Layer res4b1_branch2a_relu
I1129 09:34:45.649058  3116 net.cpp:444] res4b1_branch2a_relu <- res4b1_branch2a
I1129 09:34:45.649061  3116 net.cpp:405] res4b1_branch2a_relu -> res4b1_branch2a (in-place)
I1129 09:34:45.649185  3116 net.cpp:150] Setting up res4b1_branch2a_relu
I1129 09:34:45.649190  3116 net.cpp:157] Top shape: 1 256 44 63 (709632)
I1129 09:34:45.649193  3116 net.cpp:165] Memory required for data: 2608195540
I1129 09:34:45.649194  3116 layer_factory.hpp:77] Creating layer res4b1_branch2b
I1129 09:34:45.649199  3116 net.cpp:100] Creating Layer res4b1_branch2b
I1129 09:34:45.649202  3116 net.cpp:444] res4b1_branch2b <- res4b1_branch2a
I1129 09:34:45.649207  3116 net.cpp:418] res4b1_branch2b -> res4b1_branch2b
I1129 09:34:45.651209  3116 net.cpp:150] Setting up res4b1_branch2b
I1129 09:34:45.651221  3116 net.cpp:157] Top shape: 1 256 44 63 (709632)
I1129 09:34:45.651222  3116 net.cpp:165] Memory required for data: 2611034068
I1129 09:34:45.651226  3116 layer_factory.hpp:77] Creating layer bn4b1_branch2b
I1129 09:34:45.651232  3116 net.cpp:100] Creating Layer bn4b1_branch2b
I1129 09:34:45.651233  3116 net.cpp:444] bn4b1_branch2b <- res4b1_branch2b
I1129 09:34:45.651237  3116 net.cpp:405] bn4b1_branch2b -> res4b1_branch2b (in-place)
I1129 09:34:45.651469  3116 net.cpp:150] Setting up bn4b1_branch2b
I1129 09:34:45.651473  3116 net.cpp:157] Top shape: 1 256 44 63 (709632)
I1129 09:34:45.651475  3116 net.cpp:165] Memory required for data: 2613872596
I1129 09:34:45.651479  3116 layer_factory.hpp:77] Creating layer scale4b1_branch2b
I1129 09:34:45.651484  3116 net.cpp:100] Creating Layer scale4b1_branch2b
I1129 09:34:45.651486  3116 net.cpp:444] scale4b1_branch2b <- res4b1_branch2b
I1129 09:34:45.651489  3116 net.cpp:405] scale4b1_branch2b -> res4b1_branch2b (in-place)
I1129 09:34:45.651528  3116 layer_factory.hpp:77] Creating layer scale4b1_branch2b
I1129 09:34:45.651654  3116 net.cpp:150] Setting up scale4b1_branch2b
I1129 09:34:45.651659  3116 net.cpp:157] Top shape: 1 256 44 63 (709632)
I1129 09:34:45.651659  3116 net.cpp:165] Memory required for data: 2616711124
I1129 09:34:45.651664  3116 layer_factory.hpp:77] Creating layer res4b1_branch2b_relu
I1129 09:34:45.651666  3116 net.cpp:100] Creating Layer res4b1_branch2b_relu
I1129 09:34:45.651669  3116 net.cpp:444] res4b1_branch2b_relu <- res4b1_branch2b
I1129 09:34:45.651671  3116 net.cpp:405] res4b1_branch2b_relu -> res4b1_branch2b (in-place)
I1129 09:34:45.652020  3116 net.cpp:150] Setting up res4b1_branch2b_relu
I1129 09:34:45.652027  3116 net.cpp:157] Top shape: 1 256 44 63 (709632)
I1129 09:34:45.652029  3116 net.cpp:165] Memory required for data: 2619549652
I1129 09:34:45.652031  3116 layer_factory.hpp:77] Creating layer res4b1_branch2c
I1129 09:34:45.652036  3116 net.cpp:100] Creating Layer res4b1_branch2c
I1129 09:34:45.652039  3116 net.cpp:444] res4b1_branch2c <- res4b1_branch2b
I1129 09:34:45.652042  3116 net.cpp:418] res4b1_branch2c -> res4b1_branch2c
I1129 09:34:45.653628  3116 net.cpp:150] Setting up res4b1_branch2c
I1129 09:34:45.653640  3116 net.cpp:157] Top shape: 1 1024 44 63 (2838528)
I1129 09:34:45.653642  3116 net.cpp:165] Memory required for data: 2630903764
I1129 09:34:45.653646  3116 layer_factory.hpp:77] Creating layer bn4b1_branch2c
I1129 09:34:45.653650  3116 net.cpp:100] Creating Layer bn4b1_branch2c
I1129 09:34:45.653652  3116 net.cpp:444] bn4b1_branch2c <- res4b1_branch2c
I1129 09:34:45.653657  3116 net.cpp:405] bn4b1_branch2c -> res4b1_branch2c (in-place)
I1129 09:34:45.653903  3116 net.cpp:150] Setting up bn4b1_branch2c
I1129 09:34:45.653906  3116 net.cpp:157] Top shape: 1 1024 44 63 (2838528)
I1129 09:34:45.653908  3116 net.cpp:165] Memory required for data: 2642257876
I1129 09:34:45.653913  3116 layer_factory.hpp:77] Creating layer scale4b1_branch2c
I1129 09:34:45.653918  3116 net.cpp:100] Creating Layer scale4b1_branch2c
I1129 09:34:45.653918  3116 net.cpp:444] scale4b1_branch2c <- res4b1_branch2c
I1129 09:34:45.653921  3116 net.cpp:405] scale4b1_branch2c -> res4b1_branch2c (in-place)
I1129 09:34:45.653959  3116 layer_factory.hpp:77] Creating layer scale4b1_branch2c
I1129 09:34:45.654096  3116 net.cpp:150] Setting up scale4b1_branch2c
I1129 09:34:45.654100  3116 net.cpp:157] Top shape: 1 1024 44 63 (2838528)
I1129 09:34:45.654101  3116 net.cpp:165] Memory required for data: 2653611988
I1129 09:34:45.654105  3116 layer_factory.hpp:77] Creating layer res4b1
I1129 09:34:45.654109  3116 net.cpp:100] Creating Layer res4b1
I1129 09:34:45.654111  3116 net.cpp:444] res4b1 <- res4a_res4a_relu_0_split_1
I1129 09:34:45.654114  3116 net.cpp:444] res4b1 <- res4b1_branch2c
I1129 09:34:45.654116  3116 net.cpp:418] res4b1 -> res4b1
I1129 09:34:45.654139  3116 net.cpp:150] Setting up res4b1
I1129 09:34:45.654142  3116 net.cpp:157] Top shape: 1 1024 44 63 (2838528)
I1129 09:34:45.654145  3116 net.cpp:165] Memory required for data: 2664966100
I1129 09:34:45.654146  3116 layer_factory.hpp:77] Creating layer res4b1_relu
I1129 09:34:45.654150  3116 net.cpp:100] Creating Layer res4b1_relu
I1129 09:34:45.654151  3116 net.cpp:444] res4b1_relu <- res4b1
I1129 09:34:45.654153  3116 net.cpp:405] res4b1_relu -> res4b1 (in-place)
I1129 09:34:45.654510  3116 net.cpp:150] Setting up res4b1_relu
I1129 09:34:45.654518  3116 net.cpp:157] Top shape: 1 1024 44 63 (2838528)
I1129 09:34:45.654520  3116 net.cpp:165] Memory required for data: 2676320212
I1129 09:34:45.654522  3116 layer_factory.hpp:77] Creating layer res4b1_res4b1_relu_0_split
I1129 09:34:45.654526  3116 net.cpp:100] Creating Layer res4b1_res4b1_relu_0_split
I1129 09:34:45.654528  3116 net.cpp:444] res4b1_res4b1_relu_0_split <- res4b1
I1129 09:34:45.654532  3116 net.cpp:418] res4b1_res4b1_relu_0_split -> res4b1_res4b1_relu_0_split_0
I1129 09:34:45.654536  3116 net.cpp:418] res4b1_res4b1_relu_0_split -> res4b1_res4b1_relu_0_split_1
I1129 09:34:45.654582  3116 net.cpp:150] Setting up res4b1_res4b1_relu_0_split
I1129 09:34:45.654587  3116 net.cpp:157] Top shape: 1 1024 44 63 (2838528)
I1129 09:34:45.654589  3116 net.cpp:157] Top shape: 1 1024 44 63 (2838528)
I1129 09:34:45.654590  3116 net.cpp:165] Memory required for data: 2699028436
I1129 09:34:45.654592  3116 layer_factory.hpp:77] Creating layer res4b2_branch2a
I1129 09:34:45.654597  3116 net.cpp:100] Creating Layer res4b2_branch2a
I1129 09:34:45.654599  3116 net.cpp:444] res4b2_branch2a <- res4b1_res4b1_relu_0_split_0
I1129 09:34:45.654603  3116 net.cpp:418] res4b2_branch2a -> res4b2_branch2a
I1129 09:34:45.655822  3116 net.cpp:150] Setting up res4b2_branch2a
I1129 09:34:45.655834  3116 net.cpp:157] Top shape: 1 256 44 63 (709632)
I1129 09:34:45.655836  3116 net.cpp:165] Memory required for data: 2701866964
I1129 09:34:45.655843  3116 layer_factory.hpp:77] Creating layer bn4b2_branch2a
I1129 09:34:45.655848  3116 net.cpp:100] Creating Layer bn4b2_branch2a
I1129 09:34:45.655851  3116 net.cpp:444] bn4b2_branch2a <- res4b2_branch2a
I1129 09:34:45.655855  3116 net.cpp:405] bn4b2_branch2a -> res4b2_branch2a (in-place)
I1129 09:34:45.656093  3116 net.cpp:150] Setting up bn4b2_branch2a
I1129 09:34:45.656097  3116 net.cpp:157] Top shape: 1 256 44 63 (709632)
I1129 09:34:45.656100  3116 net.cpp:165] Memory required for data: 2704705492
I1129 09:34:45.656103  3116 layer_factory.hpp:77] Creating layer scale4b2_branch2a
I1129 09:34:45.656108  3116 net.cpp:100] Creating Layer scale4b2_branch2a
I1129 09:34:45.656111  3116 net.cpp:444] scale4b2_branch2a <- res4b2_branch2a
I1129 09:34:45.656114  3116 net.cpp:405] scale4b2_branch2a -> res4b2_branch2a (in-place)
I1129 09:34:45.656154  3116 layer_factory.hpp:77] Creating layer scale4b2_branch2a
I1129 09:34:45.656286  3116 net.cpp:150] Setting up scale4b2_branch2a
I1129 09:34:45.656291  3116 net.cpp:157] Top shape: 1 256 44 63 (709632)
I1129 09:34:45.656292  3116 net.cpp:165] Memory required for data: 2707544020
I1129 09:34:45.656296  3116 layer_factory.hpp:77] Creating layer res4b2_branch2a_relu
I1129 09:34:45.656299  3116 net.cpp:100] Creating Layer res4b2_branch2a_relu
I1129 09:34:45.656301  3116 net.cpp:444] res4b2_branch2a_relu <- res4b2_branch2a
I1129 09:34:45.656304  3116 net.cpp:405] res4b2_branch2a_relu -> res4b2_branch2a (in-place)
I1129 09:34:45.656433  3116 net.cpp:150] Setting up res4b2_branch2a_relu
I1129 09:34:45.656438  3116 net.cpp:157] Top shape: 1 256 44 63 (709632)
I1129 09:34:45.656440  3116 net.cpp:165] Memory required for data: 2710382548
I1129 09:34:45.656442  3116 layer_factory.hpp:77] Creating layer res4b2_branch2b
I1129 09:34:45.656447  3116 net.cpp:100] Creating Layer res4b2_branch2b
I1129 09:34:45.656451  3116 net.cpp:444] res4b2_branch2b <- res4b2_branch2a
I1129 09:34:45.656455  3116 net.cpp:418] res4b2_branch2b -> res4b2_branch2b
I1129 09:34:45.658666  3116 net.cpp:150] Setting up res4b2_branch2b
I1129 09:34:45.658682  3116 net.cpp:157] Top shape: 1 256 44 63 (709632)
I1129 09:34:45.658684  3116 net.cpp:165] Memory required for data: 2713221076
I1129 09:34:45.658694  3116 layer_factory.hpp:77] Creating layer bn4b2_branch2b
I1129 09:34:45.658700  3116 net.cpp:100] Creating Layer bn4b2_branch2b
I1129 09:34:45.658705  3116 net.cpp:444] bn4b2_branch2b <- res4b2_branch2b
I1129 09:34:45.658710  3116 net.cpp:405] bn4b2_branch2b -> res4b2_branch2b (in-place)
I1129 09:34:45.658982  3116 net.cpp:150] Setting up bn4b2_branch2b
I1129 09:34:45.658987  3116 net.cpp:157] Top shape: 1 256 44 63 (709632)
I1129 09:34:45.658989  3116 net.cpp:165] Memory required for data: 2716059604
I1129 09:34:45.658993  3116 layer_factory.hpp:77] Creating layer scale4b2_branch2b
I1129 09:34:45.658999  3116 net.cpp:100] Creating Layer scale4b2_branch2b
I1129 09:34:45.659001  3116 net.cpp:444] scale4b2_branch2b <- res4b2_branch2b
I1129 09:34:45.659005  3116 net.cpp:405] scale4b2_branch2b -> res4b2_branch2b (in-place)
I1129 09:34:45.659049  3116 layer_factory.hpp:77] Creating layer scale4b2_branch2b
I1129 09:34:45.659183  3116 net.cpp:150] Setting up scale4b2_branch2b
I1129 09:34:45.659188  3116 net.cpp:157] Top shape: 1 256 44 63 (709632)
I1129 09:34:45.659189  3116 net.cpp:165] Memory required for data: 2718898132
I1129 09:34:45.659193  3116 layer_factory.hpp:77] Creating layer res4b2_branch2b_relu
I1129 09:34:45.659198  3116 net.cpp:100] Creating Layer res4b2_branch2b_relu
I1129 09:34:45.659200  3116 net.cpp:444] res4b2_branch2b_relu <- res4b2_branch2b
I1129 09:34:45.659202  3116 net.cpp:405] res4b2_branch2b_relu -> res4b2_branch2b (in-place)
I1129 09:34:45.659333  3116 net.cpp:150] Setting up res4b2_branch2b_relu
I1129 09:34:45.659339  3116 net.cpp:157] Top shape: 1 256 44 63 (709632)
I1129 09:34:45.659342  3116 net.cpp:165] Memory required for data: 2721736660
I1129 09:34:45.659343  3116 layer_factory.hpp:77] Creating layer res4b2_branch2c
I1129 09:34:45.659348  3116 net.cpp:100] Creating Layer res4b2_branch2c
I1129 09:34:45.659351  3116 net.cpp:444] res4b2_branch2c <- res4b2_branch2b
I1129 09:34:45.659354  3116 net.cpp:418] res4b2_branch2c -> res4b2_branch2c
I1129 09:34:45.660962  3116 net.cpp:150] Setting up res4b2_branch2c
I1129 09:34:45.660974  3116 net.cpp:157] Top shape: 1 1024 44 63 (2838528)
I1129 09:34:45.660976  3116 net.cpp:165] Memory required for data: 2733090772
I1129 09:34:45.660980  3116 layer_factory.hpp:77] Creating layer bn4b2_branch2c
I1129 09:34:45.660986  3116 net.cpp:100] Creating Layer bn4b2_branch2c
I1129 09:34:45.660989  3116 net.cpp:444] bn4b2_branch2c <- res4b2_branch2c
I1129 09:34:45.660993  3116 net.cpp:405] bn4b2_branch2c -> res4b2_branch2c (in-place)
I1129 09:34:45.661238  3116 net.cpp:150] Setting up bn4b2_branch2c
I1129 09:34:45.661242  3116 net.cpp:157] Top shape: 1 1024 44 63 (2838528)
I1129 09:34:45.661244  3116 net.cpp:165] Memory required for data: 2744444884
I1129 09:34:45.661248  3116 layer_factory.hpp:77] Creating layer scale4b2_branch2c
I1129 09:34:45.661254  3116 net.cpp:100] Creating Layer scale4b2_branch2c
I1129 09:34:45.661257  3116 net.cpp:444] scale4b2_branch2c <- res4b2_branch2c
I1129 09:34:45.661259  3116 net.cpp:405] scale4b2_branch2c -> res4b2_branch2c (in-place)
I1129 09:34:45.661298  3116 layer_factory.hpp:77] Creating layer scale4b2_branch2c
I1129 09:34:45.661437  3116 net.cpp:150] Setting up scale4b2_branch2c
I1129 09:34:45.661440  3116 net.cpp:157] Top shape: 1 1024 44 63 (2838528)
I1129 09:34:45.661442  3116 net.cpp:165] Memory required for data: 2755798996
I1129 09:34:45.661447  3116 layer_factory.hpp:77] Creating layer res4b2
I1129 09:34:45.661450  3116 net.cpp:100] Creating Layer res4b2
I1129 09:34:45.661453  3116 net.cpp:444] res4b2 <- res4b1_res4b1_relu_0_split_1
I1129 09:34:45.661454  3116 net.cpp:444] res4b2 <- res4b2_branch2c
I1129 09:34:45.661458  3116 net.cpp:418] res4b2 -> res4b2
I1129 09:34:45.661483  3116 net.cpp:150] Setting up res4b2
I1129 09:34:45.661485  3116 net.cpp:157] Top shape: 1 1024 44 63 (2838528)
I1129 09:34:45.661487  3116 net.cpp:165] Memory required for data: 2767153108
I1129 09:34:45.661489  3116 layer_factory.hpp:77] Creating layer res4b2_relu
I1129 09:34:45.661492  3116 net.cpp:100] Creating Layer res4b2_relu
I1129 09:34:45.661494  3116 net.cpp:444] res4b2_relu <- res4b2
I1129 09:34:45.661496  3116 net.cpp:405] res4b2_relu -> res4b2 (in-place)
I1129 09:34:45.661625  3116 net.cpp:150] Setting up res4b2_relu
I1129 09:34:45.661630  3116 net.cpp:157] Top shape: 1 1024 44 63 (2838528)
I1129 09:34:45.661633  3116 net.cpp:165] Memory required for data: 2778507220
I1129 09:34:45.661633  3116 layer_factory.hpp:77] Creating layer res4b2_res4b2_relu_0_split
I1129 09:34:45.661638  3116 net.cpp:100] Creating Layer res4b2_res4b2_relu_0_split
I1129 09:34:45.661639  3116 net.cpp:444] res4b2_res4b2_relu_0_split <- res4b2
I1129 09:34:45.661643  3116 net.cpp:418] res4b2_res4b2_relu_0_split -> res4b2_res4b2_relu_0_split_0
I1129 09:34:45.661648  3116 net.cpp:418] res4b2_res4b2_relu_0_split -> res4b2_res4b2_relu_0_split_1
I1129 09:34:45.661694  3116 net.cpp:150] Setting up res4b2_res4b2_relu_0_split
I1129 09:34:45.661697  3116 net.cpp:157] Top shape: 1 1024 44 63 (2838528)
I1129 09:34:45.661700  3116 net.cpp:157] Top shape: 1 1024 44 63 (2838528)
I1129 09:34:45.661700  3116 net.cpp:165] Memory required for data: 2801215444
I1129 09:34:45.661702  3116 layer_factory.hpp:77] Creating layer res4b3_branch2a
I1129 09:34:45.661707  3116 net.cpp:100] Creating Layer res4b3_branch2a
I1129 09:34:45.661710  3116 net.cpp:444] res4b3_branch2a <- res4b2_res4b2_relu_0_split_0
I1129 09:34:45.661715  3116 net.cpp:418] res4b3_branch2a -> res4b3_branch2a
I1129 09:34:45.662732  3116 net.cpp:150] Setting up res4b3_branch2a
I1129 09:34:45.662742  3116 net.cpp:157] Top shape: 1 256 44 63 (709632)
I1129 09:34:45.662744  3116 net.cpp:165] Memory required for data: 2804053972
I1129 09:34:45.662749  3116 layer_factory.hpp:77] Creating layer bn4b3_branch2a
I1129 09:34:45.662755  3116 net.cpp:100] Creating Layer bn4b3_branch2a
I1129 09:34:45.662758  3116 net.cpp:444] bn4b3_branch2a <- res4b3_branch2a
I1129 09:34:45.662761  3116 net.cpp:405] bn4b3_branch2a -> res4b3_branch2a (in-place)
I1129 09:34:45.663007  3116 net.cpp:150] Setting up bn4b3_branch2a
I1129 09:34:45.663013  3116 net.cpp:157] Top shape: 1 256 44 63 (709632)
I1129 09:34:45.663015  3116 net.cpp:165] Memory required for data: 2806892500
I1129 09:34:45.663019  3116 layer_factory.hpp:77] Creating layer scale4b3_branch2a
I1129 09:34:45.663023  3116 net.cpp:100] Creating Layer scale4b3_branch2a
I1129 09:34:45.663025  3116 net.cpp:444] scale4b3_branch2a <- res4b3_branch2a
I1129 09:34:45.663028  3116 net.cpp:405] scale4b3_branch2a -> res4b3_branch2a (in-place)
I1129 09:34:45.663070  3116 layer_factory.hpp:77] Creating layer scale4b3_branch2a
I1129 09:34:45.663203  3116 net.cpp:150] Setting up scale4b3_branch2a
I1129 09:34:45.663208  3116 net.cpp:157] Top shape: 1 256 44 63 (709632)
I1129 09:34:45.663209  3116 net.cpp:165] Memory required for data: 2809731028
I1129 09:34:45.663213  3116 layer_factory.hpp:77] Creating layer res4b3_branch2a_relu
I1129 09:34:45.663216  3116 net.cpp:100] Creating Layer res4b3_branch2a_relu
I1129 09:34:45.663219  3116 net.cpp:444] res4b3_branch2a_relu <- res4b3_branch2a
I1129 09:34:45.663221  3116 net.cpp:405] res4b3_branch2a_relu -> res4b3_branch2a (in-place)
I1129 09:34:45.663353  3116 net.cpp:150] Setting up res4b3_branch2a_relu
I1129 09:34:45.663358  3116 net.cpp:157] Top shape: 1 256 44 63 (709632)
I1129 09:34:45.663360  3116 net.cpp:165] Memory required for data: 2812569556
I1129 09:34:45.663362  3116 layer_factory.hpp:77] Creating layer res4b3_branch2b
I1129 09:34:45.663367  3116 net.cpp:100] Creating Layer res4b3_branch2b
I1129 09:34:45.663369  3116 net.cpp:444] res4b3_branch2b <- res4b3_branch2a
I1129 09:34:45.663372  3116 net.cpp:418] res4b3_branch2b -> res4b3_branch2b
I1129 09:34:45.665415  3116 net.cpp:150] Setting up res4b3_branch2b
I1129 09:34:45.665426  3116 net.cpp:157] Top shape: 1 256 44 63 (709632)
I1129 09:34:45.665428  3116 net.cpp:165] Memory required for data: 2815408084
I1129 09:34:45.665433  3116 layer_factory.hpp:77] Creating layer bn4b3_branch2b
I1129 09:34:45.665441  3116 net.cpp:100] Creating Layer bn4b3_branch2b
I1129 09:34:45.665444  3116 net.cpp:444] bn4b3_branch2b <- res4b3_branch2b
I1129 09:34:45.665448  3116 net.cpp:405] bn4b3_branch2b -> res4b3_branch2b (in-place)
I1129 09:34:45.665696  3116 net.cpp:150] Setting up bn4b3_branch2b
I1129 09:34:45.665700  3116 net.cpp:157] Top shape: 1 256 44 63 (709632)
I1129 09:34:45.665702  3116 net.cpp:165] Memory required for data: 2818246612
I1129 09:34:45.665706  3116 layer_factory.hpp:77] Creating layer scale4b3_branch2b
I1129 09:34:45.665712  3116 net.cpp:100] Creating Layer scale4b3_branch2b
I1129 09:34:45.665714  3116 net.cpp:444] scale4b3_branch2b <- res4b3_branch2b
I1129 09:34:45.665717  3116 net.cpp:405] scale4b3_branch2b -> res4b3_branch2b (in-place)
I1129 09:34:45.665758  3116 layer_factory.hpp:77] Creating layer scale4b3_branch2b
I1129 09:34:45.665890  3116 net.cpp:150] Setting up scale4b3_branch2b
I1129 09:34:45.665894  3116 net.cpp:157] Top shape: 1 256 44 63 (709632)
I1129 09:34:45.665896  3116 net.cpp:165] Memory required for data: 2821085140
I1129 09:34:45.665899  3116 layer_factory.hpp:77] Creating layer res4b3_branch2b_relu
I1129 09:34:45.665904  3116 net.cpp:100] Creating Layer res4b3_branch2b_relu
I1129 09:34:45.665905  3116 net.cpp:444] res4b3_branch2b_relu <- res4b3_branch2b
I1129 09:34:45.665909  3116 net.cpp:405] res4b3_branch2b_relu -> res4b3_branch2b (in-place)
I1129 09:34:45.666250  3116 net.cpp:150] Setting up res4b3_branch2b_relu
I1129 09:34:45.666257  3116 net.cpp:157] Top shape: 1 256 44 63 (709632)
I1129 09:34:45.666260  3116 net.cpp:165] Memory required for data: 2823923668
I1129 09:34:45.666261  3116 layer_factory.hpp:77] Creating layer res4b3_branch2c
I1129 09:34:45.666266  3116 net.cpp:100] Creating Layer res4b3_branch2c
I1129 09:34:45.666268  3116 net.cpp:444] res4b3_branch2c <- res4b3_branch2b
I1129 09:34:45.666272  3116 net.cpp:418] res4b3_branch2c -> res4b3_branch2c
I1129 09:34:45.667665  3116 net.cpp:150] Setting up res4b3_branch2c
I1129 09:34:45.667675  3116 net.cpp:157] Top shape: 1 1024 44 63 (2838528)
I1129 09:34:45.667676  3116 net.cpp:165] Memory required for data: 2835277780
I1129 09:34:45.667680  3116 layer_factory.hpp:77] Creating layer bn4b3_branch2c
I1129 09:34:45.667683  3116 net.cpp:100] Creating Layer bn4b3_branch2c
I1129 09:34:45.667685  3116 net.cpp:444] bn4b3_branch2c <- res4b3_branch2c
I1129 09:34:45.667690  3116 net.cpp:405] bn4b3_branch2c -> res4b3_branch2c (in-place)
I1129 09:34:45.667937  3116 net.cpp:150] Setting up bn4b3_branch2c
I1129 09:34:45.667940  3116 net.cpp:157] Top shape: 1 1024 44 63 (2838528)
I1129 09:34:45.667943  3116 net.cpp:165] Memory required for data: 2846631892
I1129 09:34:45.667946  3116 layer_factory.hpp:77] Creating layer scale4b3_branch2c
I1129 09:34:45.667951  3116 net.cpp:100] Creating Layer scale4b3_branch2c
I1129 09:34:45.667953  3116 net.cpp:444] scale4b3_branch2c <- res4b3_branch2c
I1129 09:34:45.667956  3116 net.cpp:405] scale4b3_branch2c -> res4b3_branch2c (in-place)
I1129 09:34:45.667994  3116 layer_factory.hpp:77] Creating layer scale4b3_branch2c
I1129 09:34:45.668133  3116 net.cpp:150] Setting up scale4b3_branch2c
I1129 09:34:45.668136  3116 net.cpp:157] Top shape: 1 1024 44 63 (2838528)
I1129 09:34:45.668138  3116 net.cpp:165] Memory required for data: 2857986004
I1129 09:34:45.668141  3116 layer_factory.hpp:77] Creating layer res4b3
I1129 09:34:45.668145  3116 net.cpp:100] Creating Layer res4b3
I1129 09:34:45.668148  3116 net.cpp:444] res4b3 <- res4b2_res4b2_relu_0_split_1
I1129 09:34:45.668149  3116 net.cpp:444] res4b3 <- res4b3_branch2c
I1129 09:34:45.668153  3116 net.cpp:418] res4b3 -> res4b3
I1129 09:34:45.668175  3116 net.cpp:150] Setting up res4b3
I1129 09:34:45.668179  3116 net.cpp:157] Top shape: 1 1024 44 63 (2838528)
I1129 09:34:45.668180  3116 net.cpp:165] Memory required for data: 2869340116
I1129 09:34:45.668181  3116 layer_factory.hpp:77] Creating layer res4b3_relu
I1129 09:34:45.668185  3116 net.cpp:100] Creating Layer res4b3_relu
I1129 09:34:45.668187  3116 net.cpp:444] res4b3_relu <- res4b3
I1129 09:34:45.668190  3116 net.cpp:405] res4b3_relu -> res4b3 (in-place)
I1129 09:34:45.668553  3116 net.cpp:150] Setting up res4b3_relu
I1129 09:34:45.668560  3116 net.cpp:157] Top shape: 1 1024 44 63 (2838528)
I1129 09:34:45.668562  3116 net.cpp:165] Memory required for data: 2880694228
I1129 09:34:45.668565  3116 layer_factory.hpp:77] Creating layer res4b3_res4b3_relu_0_split
I1129 09:34:45.668567  3116 net.cpp:100] Creating Layer res4b3_res4b3_relu_0_split
I1129 09:34:45.668570  3116 net.cpp:444] res4b3_res4b3_relu_0_split <- res4b3
I1129 09:34:45.668573  3116 net.cpp:418] res4b3_res4b3_relu_0_split -> res4b3_res4b3_relu_0_split_0
I1129 09:34:45.668577  3116 net.cpp:418] res4b3_res4b3_relu_0_split -> res4b3_res4b3_relu_0_split_1
I1129 09:34:45.668624  3116 net.cpp:150] Setting up res4b3_res4b3_relu_0_split
I1129 09:34:45.668628  3116 net.cpp:157] Top shape: 1 1024 44 63 (2838528)
I1129 09:34:45.668630  3116 net.cpp:157] Top shape: 1 1024 44 63 (2838528)
I1129 09:34:45.668632  3116 net.cpp:165] Memory required for data: 2903402452
I1129 09:34:45.668633  3116 layer_factory.hpp:77] Creating layer res4b4_branch2a
I1129 09:34:45.668639  3116 net.cpp:100] Creating Layer res4b4_branch2a
I1129 09:34:45.668642  3116 net.cpp:444] res4b4_branch2a <- res4b3_res4b3_relu_0_split_0
I1129 09:34:45.668644  3116 net.cpp:418] res4b4_branch2a -> res4b4_branch2a
I1129 09:34:45.669590  3116 net.cpp:150] Setting up res4b4_branch2a
I1129 09:34:45.669597  3116 net.cpp:157] Top shape: 1 256 44 63 (709632)
I1129 09:34:45.669600  3116 net.cpp:165] Memory required for data: 2906240980
I1129 09:34:45.669602  3116 layer_factory.hpp:77] Creating layer bn4b4_branch2a
I1129 09:34:45.669607  3116 net.cpp:100] Creating Layer bn4b4_branch2a
I1129 09:34:45.669610  3116 net.cpp:444] bn4b4_branch2a <- res4b4_branch2a
I1129 09:34:45.669612  3116 net.cpp:405] bn4b4_branch2a -> res4b4_branch2a (in-place)
I1129 09:34:45.669852  3116 net.cpp:150] Setting up bn4b4_branch2a
I1129 09:34:45.669857  3116 net.cpp:157] Top shape: 1 256 44 63 (709632)
I1129 09:34:45.669857  3116 net.cpp:165] Memory required for data: 2909079508
I1129 09:34:45.669862  3116 layer_factory.hpp:77] Creating layer scale4b4_branch2a
I1129 09:34:45.669865  3116 net.cpp:100] Creating Layer scale4b4_branch2a
I1129 09:34:45.669867  3116 net.cpp:444] scale4b4_branch2a <- res4b4_branch2a
I1129 09:34:45.669870  3116 net.cpp:405] scale4b4_branch2a -> res4b4_branch2a (in-place)
I1129 09:34:45.669912  3116 layer_factory.hpp:77] Creating layer scale4b4_branch2a
I1129 09:34:45.670044  3116 net.cpp:150] Setting up scale4b4_branch2a
I1129 09:34:45.670048  3116 net.cpp:157] Top shape: 1 256 44 63 (709632)
I1129 09:34:45.670050  3116 net.cpp:165] Memory required for data: 2911918036
I1129 09:34:45.670053  3116 layer_factory.hpp:77] Creating layer res4b4_branch2a_relu
I1129 09:34:45.670056  3116 net.cpp:100] Creating Layer res4b4_branch2a_relu
I1129 09:34:45.670058  3116 net.cpp:444] res4b4_branch2a_relu <- res4b4_branch2a
I1129 09:34:45.670060  3116 net.cpp:405] res4b4_branch2a_relu -> res4b4_branch2a (in-place)
I1129 09:34:45.670188  3116 net.cpp:150] Setting up res4b4_branch2a_relu
I1129 09:34:45.670192  3116 net.cpp:157] Top shape: 1 256 44 63 (709632)
I1129 09:34:45.670194  3116 net.cpp:165] Memory required for data: 2914756564
I1129 09:34:45.670197  3116 layer_factory.hpp:77] Creating layer res4b4_branch2b
I1129 09:34:45.670200  3116 net.cpp:100] Creating Layer res4b4_branch2b
I1129 09:34:45.670202  3116 net.cpp:444] res4b4_branch2b <- res4b4_branch2a
I1129 09:34:45.670207  3116 net.cpp:418] res4b4_branch2b -> res4b4_branch2b
I1129 09:34:45.672269  3116 net.cpp:150] Setting up res4b4_branch2b
I1129 09:34:45.672281  3116 net.cpp:157] Top shape: 1 256 44 63 (709632)
I1129 09:34:45.672282  3116 net.cpp:165] Memory required for data: 2917595092
I1129 09:34:45.672286  3116 layer_factory.hpp:77] Creating layer bn4b4_branch2b
I1129 09:34:45.672291  3116 net.cpp:100] Creating Layer bn4b4_branch2b
I1129 09:34:45.672294  3116 net.cpp:444] bn4b4_branch2b <- res4b4_branch2b
I1129 09:34:45.672297  3116 net.cpp:405] bn4b4_branch2b -> res4b4_branch2b (in-place)
I1129 09:34:45.672549  3116 net.cpp:150] Setting up bn4b4_branch2b
I1129 09:34:45.672554  3116 net.cpp:157] Top shape: 1 256 44 63 (709632)
I1129 09:34:45.672556  3116 net.cpp:165] Memory required for data: 2920433620
I1129 09:34:45.672560  3116 layer_factory.hpp:77] Creating layer scale4b4_branch2b
I1129 09:34:45.672564  3116 net.cpp:100] Creating Layer scale4b4_branch2b
I1129 09:34:45.672566  3116 net.cpp:444] scale4b4_branch2b <- res4b4_branch2b
I1129 09:34:45.672569  3116 net.cpp:405] scale4b4_branch2b -> res4b4_branch2b (in-place)
I1129 09:34:45.672611  3116 layer_factory.hpp:77] Creating layer scale4b4_branch2b
I1129 09:34:45.672746  3116 net.cpp:150] Setting up scale4b4_branch2b
I1129 09:34:45.672750  3116 net.cpp:157] Top shape: 1 256 44 63 (709632)
I1129 09:34:45.672752  3116 net.cpp:165] Memory required for data: 2923272148
I1129 09:34:45.672755  3116 layer_factory.hpp:77] Creating layer res4b4_branch2b_relu
I1129 09:34:45.672760  3116 net.cpp:100] Creating Layer res4b4_branch2b_relu
I1129 09:34:45.672761  3116 net.cpp:444] res4b4_branch2b_relu <- res4b4_branch2b
I1129 09:34:45.672763  3116 net.cpp:405] res4b4_branch2b_relu -> res4b4_branch2b (in-place)
I1129 09:34:45.672896  3116 net.cpp:150] Setting up res4b4_branch2b_relu
I1129 09:34:45.672901  3116 net.cpp:157] Top shape: 1 256 44 63 (709632)
I1129 09:34:45.672904  3116 net.cpp:165] Memory required for data: 2926110676
I1129 09:34:45.672905  3116 layer_factory.hpp:77] Creating layer res4b4_branch2c
I1129 09:34:45.672909  3116 net.cpp:100] Creating Layer res4b4_branch2c
I1129 09:34:45.672912  3116 net.cpp:444] res4b4_branch2c <- res4b4_branch2b
I1129 09:34:45.672914  3116 net.cpp:418] res4b4_branch2c -> res4b4_branch2c
I1129 09:34:45.674531  3116 net.cpp:150] Setting up res4b4_branch2c
I1129 09:34:45.674540  3116 net.cpp:157] Top shape: 1 1024 44 63 (2838528)
I1129 09:34:45.674542  3116 net.cpp:165] Memory required for data: 2937464788
I1129 09:34:45.674546  3116 layer_factory.hpp:77] Creating layer bn4b4_branch2c
I1129 09:34:45.674552  3116 net.cpp:100] Creating Layer bn4b4_branch2c
I1129 09:34:45.674554  3116 net.cpp:444] bn4b4_branch2c <- res4b4_branch2c
I1129 09:34:45.674557  3116 net.cpp:405] bn4b4_branch2c -> res4b4_branch2c (in-place)
I1129 09:34:45.674808  3116 net.cpp:150] Setting up bn4b4_branch2c
I1129 09:34:45.674813  3116 net.cpp:157] Top shape: 1 1024 44 63 (2838528)
I1129 09:34:45.674821  3116 net.cpp:165] Memory required for data: 2948818900
I1129 09:34:45.674826  3116 layer_factory.hpp:77] Creating layer scale4b4_branch2c
I1129 09:34:45.674830  3116 net.cpp:100] Creating Layer scale4b4_branch2c
I1129 09:34:45.674832  3116 net.cpp:444] scale4b4_branch2c <- res4b4_branch2c
I1129 09:34:45.674835  3116 net.cpp:405] scale4b4_branch2c -> res4b4_branch2c (in-place)
I1129 09:34:45.674875  3116 layer_factory.hpp:77] Creating layer scale4b4_branch2c
I1129 09:34:45.675017  3116 net.cpp:150] Setting up scale4b4_branch2c
I1129 09:34:45.675021  3116 net.cpp:157] Top shape: 1 1024 44 63 (2838528)
I1129 09:34:45.675024  3116 net.cpp:165] Memory required for data: 2960173012
I1129 09:34:45.675026  3116 layer_factory.hpp:77] Creating layer res4b4
I1129 09:34:45.675030  3116 net.cpp:100] Creating Layer res4b4
I1129 09:34:45.675032  3116 net.cpp:444] res4b4 <- res4b3_res4b3_relu_0_split_1
I1129 09:34:45.675034  3116 net.cpp:444] res4b4 <- res4b4_branch2c
I1129 09:34:45.675037  3116 net.cpp:418] res4b4 -> res4b4
I1129 09:34:45.675061  3116 net.cpp:150] Setting up res4b4
I1129 09:34:45.675065  3116 net.cpp:157] Top shape: 1 1024 44 63 (2838528)
I1129 09:34:45.675066  3116 net.cpp:165] Memory required for data: 2971527124
I1129 09:34:45.675070  3116 layer_factory.hpp:77] Creating layer res4b4_relu
I1129 09:34:45.675072  3116 net.cpp:100] Creating Layer res4b4_relu
I1129 09:34:45.675074  3116 net.cpp:444] res4b4_relu <- res4b4
I1129 09:34:45.675077  3116 net.cpp:405] res4b4_relu -> res4b4 (in-place)
I1129 09:34:45.675209  3116 net.cpp:150] Setting up res4b4_relu
I1129 09:34:45.675215  3116 net.cpp:157] Top shape: 1 1024 44 63 (2838528)
I1129 09:34:45.675215  3116 net.cpp:165] Memory required for data: 2982881236
I1129 09:34:45.675217  3116 layer_factory.hpp:77] Creating layer res4b4_res4b4_relu_0_split
I1129 09:34:45.675222  3116 net.cpp:100] Creating Layer res4b4_res4b4_relu_0_split
I1129 09:34:45.675225  3116 net.cpp:444] res4b4_res4b4_relu_0_split <- res4b4
I1129 09:34:45.675228  3116 net.cpp:418] res4b4_res4b4_relu_0_split -> res4b4_res4b4_relu_0_split_0
I1129 09:34:45.675231  3116 net.cpp:418] res4b4_res4b4_relu_0_split -> res4b4_res4b4_relu_0_split_1
I1129 09:34:45.675276  3116 net.cpp:150] Setting up res4b4_res4b4_relu_0_split
I1129 09:34:45.675282  3116 net.cpp:157] Top shape: 1 1024 44 63 (2838528)
I1129 09:34:45.675284  3116 net.cpp:157] Top shape: 1 1024 44 63 (2838528)
I1129 09:34:45.675285  3116 net.cpp:165] Memory required for data: 3005589460
I1129 09:34:45.675287  3116 layer_factory.hpp:77] Creating layer res4b5_branch2a
I1129 09:34:45.675292  3116 net.cpp:100] Creating Layer res4b5_branch2a
I1129 09:34:45.675294  3116 net.cpp:444] res4b5_branch2a <- res4b4_res4b4_relu_0_split_0
I1129 09:34:45.675297  3116 net.cpp:418] res4b5_branch2a -> res4b5_branch2a
I1129 09:34:45.676259  3116 net.cpp:150] Setting up res4b5_branch2a
I1129 09:34:45.676266  3116 net.cpp:157] Top shape: 1 256 44 63 (709632)
I1129 09:34:45.676268  3116 net.cpp:165] Memory required for data: 3008427988
I1129 09:34:45.676272  3116 layer_factory.hpp:77] Creating layer bn4b5_branch2a
I1129 09:34:45.676278  3116 net.cpp:100] Creating Layer bn4b5_branch2a
I1129 09:34:45.676281  3116 net.cpp:444] bn4b5_branch2a <- res4b5_branch2a
I1129 09:34:45.676283  3116 net.cpp:405] bn4b5_branch2a -> res4b5_branch2a (in-place)
I1129 09:34:45.676522  3116 net.cpp:150] Setting up bn4b5_branch2a
I1129 09:34:45.676527  3116 net.cpp:157] Top shape: 1 256 44 63 (709632)
I1129 09:34:45.676528  3116 net.cpp:165] Memory required for data: 3011266516
I1129 09:34:45.676532  3116 layer_factory.hpp:77] Creating layer scale4b5_branch2a
I1129 09:34:45.676537  3116 net.cpp:100] Creating Layer scale4b5_branch2a
I1129 09:34:45.676540  3116 net.cpp:444] scale4b5_branch2a <- res4b5_branch2a
I1129 09:34:45.676544  3116 net.cpp:405] scale4b5_branch2a -> res4b5_branch2a (in-place)
I1129 09:34:45.676586  3116 layer_factory.hpp:77] Creating layer scale4b5_branch2a
I1129 09:34:45.676718  3116 net.cpp:150] Setting up scale4b5_branch2a
I1129 09:34:45.676723  3116 net.cpp:157] Top shape: 1 256 44 63 (709632)
I1129 09:34:45.676725  3116 net.cpp:165] Memory required for data: 3014105044
I1129 09:34:45.676728  3116 layer_factory.hpp:77] Creating layer res4b5_branch2a_relu
I1129 09:34:45.676733  3116 net.cpp:100] Creating Layer res4b5_branch2a_relu
I1129 09:34:45.676735  3116 net.cpp:444] res4b5_branch2a_relu <- res4b5_branch2a
I1129 09:34:45.676738  3116 net.cpp:405] res4b5_branch2a_relu -> res4b5_branch2a (in-place)
I1129 09:34:45.676865  3116 net.cpp:150] Setting up res4b5_branch2a_relu
I1129 09:34:45.676869  3116 net.cpp:157] Top shape: 1 256 44 63 (709632)
I1129 09:34:45.676872  3116 net.cpp:165] Memory required for data: 3016943572
I1129 09:34:45.676873  3116 layer_factory.hpp:77] Creating layer res4b5_branch2b
I1129 09:34:45.676878  3116 net.cpp:100] Creating Layer res4b5_branch2b
I1129 09:34:45.676882  3116 net.cpp:444] res4b5_branch2b <- res4b5_branch2a
I1129 09:34:45.676884  3116 net.cpp:418] res4b5_branch2b -> res4b5_branch2b
I1129 09:34:45.679052  3116 net.cpp:150] Setting up res4b5_branch2b
I1129 09:34:45.679065  3116 net.cpp:157] Top shape: 1 256 44 63 (709632)
I1129 09:34:45.679067  3116 net.cpp:165] Memory required for data: 3019782100
I1129 09:34:45.679074  3116 layer_factory.hpp:77] Creating layer bn4b5_branch2b
I1129 09:34:45.679080  3116 net.cpp:100] Creating Layer bn4b5_branch2b
I1129 09:34:45.679082  3116 net.cpp:444] bn4b5_branch2b <- res4b5_branch2b
I1129 09:34:45.679086  3116 net.cpp:405] bn4b5_branch2b -> res4b5_branch2b (in-place)
I1129 09:34:45.679353  3116 net.cpp:150] Setting up bn4b5_branch2b
I1129 09:34:45.679358  3116 net.cpp:157] Top shape: 1 256 44 63 (709632)
I1129 09:34:45.679359  3116 net.cpp:165] Memory required for data: 3022620628
I1129 09:34:45.679363  3116 layer_factory.hpp:77] Creating layer scale4b5_branch2b
I1129 09:34:45.679368  3116 net.cpp:100] Creating Layer scale4b5_branch2b
I1129 09:34:45.679369  3116 net.cpp:444] scale4b5_branch2b <- res4b5_branch2b
I1129 09:34:45.679373  3116 net.cpp:405] scale4b5_branch2b -> res4b5_branch2b (in-place)
I1129 09:34:45.679416  3116 layer_factory.hpp:77] Creating layer scale4b5_branch2b
I1129 09:34:45.679554  3116 net.cpp:150] Setting up scale4b5_branch2b
I1129 09:34:45.679558  3116 net.cpp:157] Top shape: 1 256 44 63 (709632)
I1129 09:34:45.679559  3116 net.cpp:165] Memory required for data: 3025459156
I1129 09:34:45.679563  3116 layer_factory.hpp:77] Creating layer res4b5_branch2b_relu
I1129 09:34:45.679566  3116 net.cpp:100] Creating Layer res4b5_branch2b_relu
I1129 09:34:45.679569  3116 net.cpp:444] res4b5_branch2b_relu <- res4b5_branch2b
I1129 09:34:45.679570  3116 net.cpp:405] res4b5_branch2b_relu -> res4b5_branch2b (in-place)
I1129 09:34:45.679931  3116 net.cpp:150] Setting up res4b5_branch2b_relu
I1129 09:34:45.679939  3116 net.cpp:157] Top shape: 1 256 44 63 (709632)
I1129 09:34:45.679941  3116 net.cpp:165] Memory required for data: 3028297684
I1129 09:34:45.679944  3116 layer_factory.hpp:77] Creating layer res4b5_branch2c
I1129 09:34:45.679949  3116 net.cpp:100] Creating Layer res4b5_branch2c
I1129 09:34:45.679952  3116 net.cpp:444] res4b5_branch2c <- res4b5_branch2b
I1129 09:34:45.679955  3116 net.cpp:418] res4b5_branch2c -> res4b5_branch2c
I1129 09:34:45.681365  3116 net.cpp:150] Setting up res4b5_branch2c
I1129 09:34:45.681375  3116 net.cpp:157] Top shape: 1 1024 44 63 (2838528)
I1129 09:34:45.681377  3116 net.cpp:165] Memory required for data: 3039651796
I1129 09:34:45.681381  3116 layer_factory.hpp:77] Creating layer bn4b5_branch2c
I1129 09:34:45.681386  3116 net.cpp:100] Creating Layer bn4b5_branch2c
I1129 09:34:45.681388  3116 net.cpp:444] bn4b5_branch2c <- res4b5_branch2c
I1129 09:34:45.681391  3116 net.cpp:405] bn4b5_branch2c -> res4b5_branch2c (in-place)
I1129 09:34:45.681649  3116 net.cpp:150] Setting up bn4b5_branch2c
I1129 09:34:45.681653  3116 net.cpp:157] Top shape: 1 1024 44 63 (2838528)
I1129 09:34:45.681655  3116 net.cpp:165] Memory required for data: 3051005908
I1129 09:34:45.681659  3116 layer_factory.hpp:77] Creating layer scale4b5_branch2c
I1129 09:34:45.681663  3116 net.cpp:100] Creating Layer scale4b5_branch2c
I1129 09:34:45.681665  3116 net.cpp:444] scale4b5_branch2c <- res4b5_branch2c
I1129 09:34:45.681668  3116 net.cpp:405] scale4b5_branch2c -> res4b5_branch2c (in-place)
I1129 09:34:45.681707  3116 layer_factory.hpp:77] Creating layer scale4b5_branch2c
I1129 09:34:45.681850  3116 net.cpp:150] Setting up scale4b5_branch2c
I1129 09:34:45.681854  3116 net.cpp:157] Top shape: 1 1024 44 63 (2838528)
I1129 09:34:45.681855  3116 net.cpp:165] Memory required for data: 3062360020
I1129 09:34:45.681869  3116 layer_factory.hpp:77] Creating layer res4b5
I1129 09:34:45.681872  3116 net.cpp:100] Creating Layer res4b5
I1129 09:34:45.681874  3116 net.cpp:444] res4b5 <- res4b4_res4b4_relu_0_split_1
I1129 09:34:45.681876  3116 net.cpp:444] res4b5 <- res4b5_branch2c
I1129 09:34:45.681880  3116 net.cpp:418] res4b5 -> res4b5
I1129 09:34:45.681905  3116 net.cpp:150] Setting up res4b5
I1129 09:34:45.681908  3116 net.cpp:157] Top shape: 1 1024 44 63 (2838528)
I1129 09:34:45.681910  3116 net.cpp:165] Memory required for data: 3073714132
I1129 09:34:45.681911  3116 layer_factory.hpp:77] Creating layer res4b5_relu
I1129 09:34:45.681915  3116 net.cpp:100] Creating Layer res4b5_relu
I1129 09:34:45.681916  3116 net.cpp:444] res4b5_relu <- res4b5
I1129 09:34:45.681920  3116 net.cpp:405] res4b5_relu -> res4b5 (in-place)
I1129 09:34:45.682507  3116 net.cpp:150] Setting up res4b5_relu
I1129 09:34:45.682513  3116 net.cpp:157] Top shape: 1 1024 44 63 (2838528)
I1129 09:34:45.682515  3116 net.cpp:165] Memory required for data: 3085068244
I1129 09:34:45.682518  3116 layer_factory.hpp:77] Creating layer res4b5_res4b5_relu_0_split
I1129 09:34:45.682521  3116 net.cpp:100] Creating Layer res4b5_res4b5_relu_0_split
I1129 09:34:45.682523  3116 net.cpp:444] res4b5_res4b5_relu_0_split <- res4b5
I1129 09:34:45.682526  3116 net.cpp:418] res4b5_res4b5_relu_0_split -> res4b5_res4b5_relu_0_split_0
I1129 09:34:45.682531  3116 net.cpp:418] res4b5_res4b5_relu_0_split -> res4b5_res4b5_relu_0_split_1
I1129 09:34:45.682580  3116 net.cpp:150] Setting up res4b5_res4b5_relu_0_split
I1129 09:34:45.682585  3116 net.cpp:157] Top shape: 1 1024 44 63 (2838528)
I1129 09:34:45.682586  3116 net.cpp:157] Top shape: 1 1024 44 63 (2838528)
I1129 09:34:45.682587  3116 net.cpp:165] Memory required for data: 3107776468
I1129 09:34:45.682590  3116 layer_factory.hpp:77] Creating layer res4b6_branch2a
I1129 09:34:45.682595  3116 net.cpp:100] Creating Layer res4b6_branch2a
I1129 09:34:45.682597  3116 net.cpp:444] res4b6_branch2a <- res4b5_res4b5_relu_0_split_0
I1129 09:34:45.682600  3116 net.cpp:418] res4b6_branch2a -> res4b6_branch2a
I1129 09:34:45.683583  3116 net.cpp:150] Setting up res4b6_branch2a
I1129 09:34:45.683591  3116 net.cpp:157] Top shape: 1 256 44 63 (709632)
I1129 09:34:45.683593  3116 net.cpp:165] Memory required for data: 3110614996
I1129 09:34:45.683596  3116 layer_factory.hpp:77] Creating layer bn4b6_branch2a
I1129 09:34:45.683601  3116 net.cpp:100] Creating Layer bn4b6_branch2a
I1129 09:34:45.683604  3116 net.cpp:444] bn4b6_branch2a <- res4b6_branch2a
I1129 09:34:45.683605  3116 net.cpp:405] bn4b6_branch2a -> res4b6_branch2a (in-place)
I1129 09:34:45.683851  3116 net.cpp:150] Setting up bn4b6_branch2a
I1129 09:34:45.683856  3116 net.cpp:157] Top shape: 1 256 44 63 (709632)
I1129 09:34:45.683857  3116 net.cpp:165] Memory required for data: 3113453524
I1129 09:34:45.683861  3116 layer_factory.hpp:77] Creating layer scale4b6_branch2a
I1129 09:34:45.683864  3116 net.cpp:100] Creating Layer scale4b6_branch2a
I1129 09:34:45.683866  3116 net.cpp:444] scale4b6_branch2a <- res4b6_branch2a
I1129 09:34:45.683871  3116 net.cpp:405] scale4b6_branch2a -> res4b6_branch2a (in-place)
I1129 09:34:45.683914  3116 layer_factory.hpp:77] Creating layer scale4b6_branch2a
I1129 09:34:45.684049  3116 net.cpp:150] Setting up scale4b6_branch2a
I1129 09:34:45.684054  3116 net.cpp:157] Top shape: 1 256 44 63 (709632)
I1129 09:34:45.684056  3116 net.cpp:165] Memory required for data: 3116292052
I1129 09:34:45.684058  3116 layer_factory.hpp:77] Creating layer res4b6_branch2a_relu
I1129 09:34:45.684062  3116 net.cpp:100] Creating Layer res4b6_branch2a_relu
I1129 09:34:45.684064  3116 net.cpp:444] res4b6_branch2a_relu <- res4b6_branch2a
I1129 09:34:45.684067  3116 net.cpp:405] res4b6_branch2a_relu -> res4b6_branch2a (in-place)
I1129 09:34:45.684195  3116 net.cpp:150] Setting up res4b6_branch2a_relu
I1129 09:34:45.684200  3116 net.cpp:157] Top shape: 1 256 44 63 (709632)
I1129 09:34:45.684201  3116 net.cpp:165] Memory required for data: 3119130580
I1129 09:34:45.684202  3116 layer_factory.hpp:77] Creating layer res4b6_branch2b
I1129 09:34:45.684207  3116 net.cpp:100] Creating Layer res4b6_branch2b
I1129 09:34:45.684209  3116 net.cpp:444] res4b6_branch2b <- res4b6_branch2a
I1129 09:34:45.684212  3116 net.cpp:418] res4b6_branch2b -> res4b6_branch2b
I1129 09:34:45.686282  3116 net.cpp:150] Setting up res4b6_branch2b
I1129 09:34:45.686295  3116 net.cpp:157] Top shape: 1 256 44 63 (709632)
I1129 09:34:45.686296  3116 net.cpp:165] Memory required for data: 3121969108
I1129 09:34:45.686301  3116 layer_factory.hpp:77] Creating layer bn4b6_branch2b
I1129 09:34:45.686306  3116 net.cpp:100] Creating Layer bn4b6_branch2b
I1129 09:34:45.686309  3116 net.cpp:444] bn4b6_branch2b <- res4b6_branch2b
I1129 09:34:45.686312  3116 net.cpp:405] bn4b6_branch2b -> res4b6_branch2b (in-place)
I1129 09:34:45.686574  3116 net.cpp:150] Setting up bn4b6_branch2b
I1129 09:34:45.686579  3116 net.cpp:157] Top shape: 1 256 44 63 (709632)
I1129 09:34:45.686580  3116 net.cpp:165] Memory required for data: 3124807636
I1129 09:34:45.686584  3116 layer_factory.hpp:77] Creating layer scale4b6_branch2b
I1129 09:34:45.686590  3116 net.cpp:100] Creating Layer scale4b6_branch2b
I1129 09:34:45.686592  3116 net.cpp:444] scale4b6_branch2b <- res4b6_branch2b
I1129 09:34:45.686594  3116 net.cpp:405] scale4b6_branch2b -> res4b6_branch2b (in-place)
I1129 09:34:45.686637  3116 layer_factory.hpp:77] Creating layer scale4b6_branch2b
I1129 09:34:45.686777  3116 net.cpp:150] Setting up scale4b6_branch2b
I1129 09:34:45.686781  3116 net.cpp:157] Top shape: 1 256 44 63 (709632)
I1129 09:34:45.686782  3116 net.cpp:165] Memory required for data: 3127646164
I1129 09:34:45.686785  3116 layer_factory.hpp:77] Creating layer res4b6_branch2b_relu
I1129 09:34:45.686789  3116 net.cpp:100] Creating Layer res4b6_branch2b_relu
I1129 09:34:45.686791  3116 net.cpp:444] res4b6_branch2b_relu <- res4b6_branch2b
I1129 09:34:45.686794  3116 net.cpp:405] res4b6_branch2b_relu -> res4b6_branch2b (in-place)
I1129 09:34:45.686933  3116 net.cpp:150] Setting up res4b6_branch2b_relu
I1129 09:34:45.686939  3116 net.cpp:157] Top shape: 1 256 44 63 (709632)
I1129 09:34:45.686940  3116 net.cpp:165] Memory required for data: 3130484692
I1129 09:34:45.686942  3116 layer_factory.hpp:77] Creating layer res4b6_branch2c
I1129 09:34:45.686947  3116 net.cpp:100] Creating Layer res4b6_branch2c
I1129 09:34:45.686949  3116 net.cpp:444] res4b6_branch2c <- res4b6_branch2b
I1129 09:34:45.686954  3116 net.cpp:418] res4b6_branch2c -> res4b6_branch2c
I1129 09:34:45.688642  3116 net.cpp:150] Setting up res4b6_branch2c
I1129 09:34:45.688655  3116 net.cpp:157] Top shape: 1 1024 44 63 (2838528)
I1129 09:34:45.688658  3116 net.cpp:165] Memory required for data: 3141838804
I1129 09:34:45.688663  3116 layer_factory.hpp:77] Creating layer bn4b6_branch2c
…
I1129 16:41:17.966343  6212 net.cpp:150] Setting up scale4b21_branch2b
I1129 16:41:17.966347  6212 net.cpp:157] Top shape: 1 256 14 14 (50176)
I1129 16:41:17.966349  6212 net.cpp:165] Memory required for data: 330358796
I1129 16:41:17.966352  6212 layer_factory.hpp:77] Creating layer res4b21_branch2b_relu
I1129 16:41:17.966356  6212 net.cpp:100] Creating Layer res4b21_branch2b_relu
I1129 16:41:17.966358  6212 net.cpp:444] res4b21_branch2b_relu <- res4b21_branch2b
I1129 16:41:17.966361  6212 net.cpp:405] res4b21_branch2b_relu -> res4b21_branch2b (in-place)
I1129 16:41:17.966773  6212 net.cpp:150] Setting up res4b21_branch2b_relu
I1129 16:41:17.966780  6212 net.cpp:157] Top shape: 1 256 14 14 (50176)
I1129 16:41:17.966783  6212 net.cpp:165] Memory required for data: 330559500
I1129 16:41:17.966785  6212 layer_factory.hpp:77] Creating layer res4b21_branch2c
I1129 16:41:17.966790  6212 net.cpp:100] Creating Layer res4b21_branch2c
I1129 16:41:17.966794  6212 net.cpp:444] res4b21_branch2c <- res4b21_branch2b
I1129 16:41:17.966797  6212 net.cpp:418] res4b21_branch2c -> res4b21_branch2c
I1129 16:41:17.968410  6212 net.cpp:150] Setting up res4b21_branch2c
I1129 16:41:17.968421  6212 net.cpp:157] Top shape: 1 1024 14 14 (200704)
I1129 16:41:17.968423  6212 net.cpp:165] Memory required for data: 331362316
I1129 16:41:17.968426  6212 layer_factory.hpp:77] Creating layer bn4b21_branch2c
I1129 16:41:17.968430  6212 net.cpp:100] Creating Layer bn4b21_branch2c
I1129 16:41:17.968433  6212 net.cpp:444] bn4b21_branch2c <- res4b21_branch2c
I1129 16:41:17.968437  6212 net.cpp:405] bn4b21_branch2c -> res4b21_branch2c (in-place)
I1129 16:41:17.968767  6212 net.cpp:150] Setting up bn4b21_branch2c
I1129 16:41:17.968771  6212 net.cpp:157] Top shape: 1 1024 14 14 (200704)
I1129 16:41:17.968773  6212 net.cpp:165] Memory required for data: 332165132
I1129 16:41:17.968777  6212 layer_factory.hpp:77] Creating layer scale4b21_branch2c
I1129 16:41:17.968781  6212 net.cpp:100] Creating Layer scale4b21_branch2c
I1129 16:41:17.968785  6212 net.cpp:444] scale4b21_branch2c <- res4b21_branch2c
I1129 16:41:17.968786  6212 net.cpp:405] scale4b21_branch2c -> res4b21_branch2c (in-place)
I1129 16:41:17.968837  6212 layer_factory.hpp:77] Creating layer scale4b21_branch2c
I1129 16:41:17.969007  6212 net.cpp:150] Setting up scale4b21_branch2c
I1129 16:41:17.969012  6212 net.cpp:157] Top shape: 1 1024 14 14 (200704)
I1129 16:41:17.969013  6212 net.cpp:165] Memory required for data: 332967948
I1129 16:41:17.969017  6212 layer_factory.hpp:77] Creating layer res4b21
I1129 16:41:17.969022  6212 net.cpp:100] Creating Layer res4b21
I1129 16:41:17.969023  6212 net.cpp:444] res4b21 <- res4b20_res4b20_relu_0_split_1
I1129 16:41:17.969025  6212 net.cpp:444] res4b21 <- res4b21_branch2c
I1129 16:41:17.969029  6212 net.cpp:418] res4b21 -> res4b21
I1129 16:41:17.969058  6212 net.cpp:150] Setting up res4b21
I1129 16:41:17.969061  6212 net.cpp:157] Top shape: 1 1024 14 14 (200704)
I1129 16:41:17.969063  6212 net.cpp:165] Memory required for data: 333770764
I1129 16:41:17.969064  6212 layer_factory.hpp:77] Creating layer res4b21_relu
I1129 16:41:17.969069  6212 net.cpp:100] Creating Layer res4b21_relu
I1129 16:41:17.969071  6212 net.cpp:444] res4b21_relu <- res4b21
I1129 16:41:17.969074  6212 net.cpp:405] res4b21_relu -> res4b21 (in-place)
I1129 16:41:17.969506  6212 net.cpp:150] Setting up res4b21_relu
I1129 16:41:17.969514  6212 net.cpp:157] Top shape: 1 1024 14 14 (200704)
I1129 16:41:17.969516  6212 net.cpp:165] Memory required for data: 334573580
I1129 16:41:17.969518  6212 layer_factory.hpp:77] Creating layer res4b21_res4b21_relu_0_split
I1129 16:41:17.969522  6212 net.cpp:100] Creating Layer res4b21_res4b21_relu_0_split
I1129 16:41:17.969525  6212 net.cpp:444] res4b21_res4b21_relu_0_split <- res4b21
I1129 16:41:17.969528  6212 net.cpp:418] res4b21_res4b21_relu_0_split -> res4b21_res4b21_relu_0_split_0
I1129 16:41:17.969534  6212 net.cpp:418] res4b21_res4b21_relu_0_split -> res4b21_res4b21_relu_0_split_1
I1129 16:41:17.969593  6212 net.cpp:150] Setting up res4b21_res4b21_relu_0_split
I1129 16:41:17.969596  6212 net.cpp:157] Top shape: 1 1024 14 14 (200704)
I1129 16:41:17.969599  6212 net.cpp:157] Top shape: 1 1024 14 14 (200704)
I1129 16:41:17.969600  6212 net.cpp:165] Memory required for data: 336179212
I1129 16:41:17.969601  6212 layer_factory.hpp:77] Creating layer res4b22_branch2a
I1129 16:41:17.969607  6212 net.cpp:100] Creating Layer res4b22_branch2a
I1129 16:41:17.969609  6212 net.cpp:444] res4b22_branch2a <- res4b21_res4b21_relu_0_split_0
I1129 16:41:17.969614  6212 net.cpp:418] res4b22_branch2a -> res4b22_branch2a
I1129 16:41:17.970726  6212 net.cpp:150] Setting up res4b22_branch2a
I1129 16:41:17.970734  6212 net.cpp:157] Top shape: 1 256 14 14 (50176)
I1129 16:41:17.970736  6212 net.cpp:165] Memory required for data: 336379916
I1129 16:41:17.970739  6212 layer_factory.hpp:77] Creating layer bn4b22_branch2a
I1129 16:41:17.970744  6212 net.cpp:100] Creating Layer bn4b22_branch2a
I1129 16:41:17.970747  6212 net.cpp:444] bn4b22_branch2a <- res4b22_branch2a
I1129 16:41:17.970752  6212 net.cpp:405] bn4b22_branch2a -> res4b22_branch2a (in-place)
I1129 16:41:17.971065  6212 net.cpp:150] Setting up bn4b22_branch2a
I1129 16:41:17.971071  6212 net.cpp:157] Top shape: 1 256 14 14 (50176)
I1129 16:41:17.971071  6212 net.cpp:165] Memory required for data: 336580620
I1129 16:41:17.971076  6212 layer_factory.hpp:77] Creating layer scale4b22_branch2a
I1129 16:41:17.971081  6212 net.cpp:100] Creating Layer scale4b22_branch2a
I1129 16:41:17.971082  6212 net.cpp:444] scale4b22_branch2a <- res4b22_branch2a
I1129 16:41:17.971086  6212 net.cpp:405] scale4b22_branch2a -> res4b22_branch2a (in-place)
I1129 16:41:17.971138  6212 layer_factory.hpp:77] Creating layer scale4b22_branch2a
I1129 16:41:17.971299  6212 net.cpp:150] Setting up scale4b22_branch2a
I1129 16:41:17.971303  6212 net.cpp:157] Top shape: 1 256 14 14 (50176)
I1129 16:41:17.971305  6212 net.cpp:165] Memory required for data: 336781324
I1129 16:41:17.971308  6212 layer_factory.hpp:77] Creating layer res4b22_branch2a_relu
I1129 16:41:17.971312  6212 net.cpp:100] Creating Layer res4b22_branch2a_relu
I1129 16:41:17.971313  6212 net.cpp:444] res4b22_branch2a_relu <- res4b22_branch2a
I1129 16:41:17.971315  6212 net.cpp:405] res4b22_branch2a_relu -> res4b22_branch2a (in-place)
I1129 16:41:17.971451  6212 net.cpp:150] Setting up res4b22_branch2a_relu
I1129 16:41:17.971457  6212 net.cpp:157] Top shape: 1 256 14 14 (50176)
I1129 16:41:17.971458  6212 net.cpp:165] Memory required for data: 336982028
I1129 16:41:17.971460  6212 layer_factory.hpp:77] Creating layer res4b22_branch2b
I1129 16:41:17.971464  6212 net.cpp:100] Creating Layer res4b22_branch2b
I1129 16:41:17.971467  6212 net.cpp:444] res4b22_branch2b <- res4b22_branch2a
I1129 16:41:17.971470  6212 net.cpp:418] res4b22_branch2b -> res4b22_branch2b
I1129 16:41:17.974086  6212 net.cpp:150] Setting up res4b22_branch2b
I1129 16:41:17.974102  6212 net.cpp:157] Top shape: 1 256 14 14 (50176)
I1129 16:41:17.974104  6212 net.cpp:165] Memory required for data: 337182732
I1129 16:41:17.974110  6212 layer_factory.hpp:77] Creating layer bn4b22_branch2b
I1129 16:41:17.974117  6212 net.cpp:100] Creating Layer bn4b22_branch2b
I1129 16:41:17.974122  6212 net.cpp:444] bn4b22_branch2b <- res4b22_branch2b
I1129 16:41:17.974124  6212 net.cpp:405] bn4b22_branch2b -> res4b22_branch2b (in-place)
I1129 16:41:17.974454  6212 net.cpp:150] Setting up bn4b22_branch2b
I1129 16:41:17.974458  6212 net.cpp:157] Top shape: 1 256 14 14 (50176)
I1129 16:41:17.974460  6212 net.cpp:165] Memory required for data: 337383436
I1129 16:41:17.974464  6212 layer_factory.hpp:77] Creating layer scale4b22_branch2b
I1129 16:41:17.974469  6212 net.cpp:100] Creating Layer scale4b22_branch2b
I1129 16:41:17.974472  6212 net.cpp:444] scale4b22_branch2b <- res4b22_branch2b
I1129 16:41:17.974475  6212 net.cpp:405] scale4b22_branch2b -> res4b22_branch2b (in-place)
I1129 16:41:17.974529  6212 layer_factory.hpp:77] Creating layer scale4b22_branch2b
I1129 16:41:17.974692  6212 net.cpp:150] Setting up scale4b22_branch2b
I1129 16:41:17.974697  6212 net.cpp:157] Top shape: 1 256 14 14 (50176)
I1129 16:41:17.974699  6212 net.cpp:165] Memory required for data: 337584140
I1129 16:41:17.974701  6212 layer_factory.hpp:77] Creating layer res4b22_branch2b_relu
I1129 16:41:17.974706  6212 net.cpp:100] Creating Layer res4b22_branch2b_relu
I1129 16:41:17.974709  6212 net.cpp:444] res4b22_branch2b_relu <- res4b22_branch2b
I1129 16:41:17.974711  6212 net.cpp:405] res4b22_branch2b_relu -> res4b22_branch2b (in-place)
I1129 16:41:17.974874  6212 net.cpp:150] Setting up res4b22_branch2b_relu
I1129 16:41:17.974879  6212 net.cpp:157] Top shape: 1 256 14 14 (50176)
I1129 16:41:17.974881  6212 net.cpp:165] Memory required for data: 337784844
I1129 16:41:17.974884  6212 layer_factory.hpp:77] Creating layer res4b22_branch2c
I1129 16:41:17.974889  6212 net.cpp:100] Creating Layer res4b22_branch2c
I1129 16:41:17.974891  6212 net.cpp:444] res4b22_branch2c <- res4b22_branch2b
I1129 16:41:17.974895  6212 net.cpp:418] res4b22_branch2c -> res4b22_branch2c
I1129 16:41:17.976939  6212 net.cpp:150] Setting up res4b22_branch2c
I1129 16:41:17.976954  6212 net.cpp:157] Top shape: 1 1024 14 14 (200704)
I1129 16:41:17.976956  6212 net.cpp:165] Memory required for data: 338587660
I1129 16:41:17.976963  6212 layer_factory.hpp:77] Creating layer bn4b22_branch2c
I1129 16:41:17.976969  6212 net.cpp:100] Creating Layer bn4b22_branch2c
I1129 16:41:17.976972  6212 net.cpp:444] bn4b22_branch2c <- res4b22_branch2c
I1129 16:41:17.976977  6212 net.cpp:405] bn4b22_branch2c -> res4b22_branch2c (in-place)
I1129 16:41:17.977308  6212 net.cpp:150] Setting up bn4b22_branch2c
I1129 16:41:17.977313  6212 net.cpp:157] Top shape: 1 1024 14 14 (200704)
I1129 16:41:17.977315  6212 net.cpp:165] Memory required for data: 339390476
I1129 16:41:17.977319  6212 layer_factory.hpp:77] Creating layer scale4b22_branch2c
I1129 16:41:17.977325  6212 net.cpp:100] Creating Layer scale4b22_branch2c
I1129 16:41:17.977327  6212 net.cpp:444] scale4b22_branch2c <- res4b22_branch2c
I1129 16:41:17.977330  6212 net.cpp:405] scale4b22_branch2c -> res4b22_branch2c (in-place)
I1129 16:41:17.977380  6212 layer_factory.hpp:77] Creating layer scale4b22_branch2c
I1129 16:41:17.977555  6212 net.cpp:150] Setting up scale4b22_branch2c
I1129 16:41:17.977560  6212 net.cpp:157] Top shape: 1 1024 14 14 (200704)
I1129 16:41:17.977561  6212 net.cpp:165] Memory required for data: 340193292
I1129 16:41:17.977565  6212 layer_factory.hpp:77] Creating layer res4b22
I1129 16:41:17.977569  6212 net.cpp:100] Creating Layer res4b22
I1129 16:41:17.977572  6212 net.cpp:444] res4b22 <- res4b21_res4b21_relu_0_split_1
I1129 16:41:17.977576  6212 net.cpp:444] res4b22 <- res4b22_branch2c
I1129 16:41:17.977578  6212 net.cpp:418] res4b22 -> res4b22
I1129 16:41:17.977608  6212 net.cpp:150] Setting up res4b22
I1129 16:41:17.977612  6212 net.cpp:157] Top shape: 1 1024 14 14 (200704)
I1129 16:41:17.977613  6212 net.cpp:165] Memory required for data: 340996108
I1129 16:41:17.977615  6212 layer_factory.hpp:77] Creating layer res4b22_relu
I1129 16:41:17.977618  6212 net.cpp:100] Creating Layer res4b22_relu
I1129 16:41:17.977622  6212 net.cpp:444] res4b22_relu <- res4b22
I1129 16:41:17.977623  6212 net.cpp:405] res4b22_relu -> res4b22 (in-place)
I1129 16:41:17.977763  6212 net.cpp:150] Setting up res4b22_relu
I1129 16:41:17.977769  6212 net.cpp:157] Top shape: 1 1024 14 14 (200704)
I1129 16:41:17.977772  6212 net.cpp:165] Memory required for data: 341798924
I1129 16:41:17.977773  6212 layer_factory.hpp:77] Creating layer res4b22_res4b22_relu_0_split
I1129 16:41:17.977777  6212 net.cpp:100] Creating Layer res4b22_res4b22_relu_0_split
I1129 16:41:17.977780  6212 net.cpp:444] res4b22_res4b22_relu_0_split <- res4b22
I1129 16:41:17.977784  6212 net.cpp:418] res4b22_res4b22_relu_0_split -> res4b22_res4b22_relu_0_split_0
I1129 16:41:17.977789  6212 net.cpp:418] res4b22_res4b22_relu_0_split -> res4b22_res4b22_relu_0_split_1
I1129 16:41:17.977792  6212 net.cpp:418] res4b22_res4b22_relu_0_split -> res4b22_res4b22_relu_0_split_2
I1129 16:41:17.977869  6212 net.cpp:150] Setting up res4b22_res4b22_relu_0_split
I1129 16:41:17.977874  6212 net.cpp:157] Top shape: 1 1024 14 14 (200704)
I1129 16:41:17.977876  6212 net.cpp:157] Top shape: 1 1024 14 14 (200704)
I1129 16:41:17.977879  6212 net.cpp:157] Top shape: 1 1024 14 14 (200704)
I1129 16:41:17.977880  6212 net.cpp:165] Memory required for data: 344207372
I1129 16:41:17.977881  6212 layer_factory.hpp:77] Creating layer res5a_branch1
I1129 16:41:17.977886  6212 net.cpp:100] Creating Layer res5a_branch1
I1129 16:41:17.977888  6212 net.cpp:444] res5a_branch1 <- res4b22_res4b22_relu_0_split_0
I1129 16:41:17.977892  6212 net.cpp:418] res5a_branch1 -> res5a_branch1
I1129 16:41:17.982966  6212 net.cpp:150] Setting up res5a_branch1
I1129 16:41:17.982995  6212 net.cpp:157] Top shape: 1 2048 14 14 (401408)
I1129 16:41:17.982997  6212 net.cpp:165] Memory required for data: 345813004
I1129 16:41:17.983009  6212 layer_factory.hpp:77] Creating layer bn5a_branch1
I1129 16:41:17.983022  6212 net.cpp:100] Creating Layer bn5a_branch1
I1129 16:41:17.983028  6212 net.cpp:444] bn5a_branch1 <- res5a_branch1
I1129 16:41:17.983034  6212 net.cpp:405] bn5a_branch1 -> res5a_branch1 (in-place)
I1129 16:41:17.983400  6212 net.cpp:150] Setting up bn5a_branch1
I1129 16:41:17.983405  6212 net.cpp:157] Top shape: 1 2048 14 14 (401408)
I1129 16:41:17.983407  6212 net.cpp:165] Memory required for data: 347418636
I1129 16:41:17.983412  6212 layer_factory.hpp:77] Creating layer scale5a_branch1
I1129 16:41:17.983417  6212 net.cpp:100] Creating Layer scale5a_branch1
I1129 16:41:17.983419  6212 net.cpp:444] scale5a_branch1 <- res5a_branch1
I1129 16:41:17.983422  6212 net.cpp:405] scale5a_branch1 -> res5a_branch1 (in-place)
I1129 16:41:17.983474  6212 layer_factory.hpp:77] Creating layer scale5a_branch1
I1129 16:41:17.983649  6212 net.cpp:150] Setting up scale5a_branch1
I1129 16:41:17.983654  6212 net.cpp:157] Top shape: 1 2048 14 14 (401408)
I1129 16:41:17.983654  6212 net.cpp:165] Memory required for data: 349024268
I1129 16:41:17.983657  6212 layer_factory.hpp:77] Creating layer res5a_branch2a
I1129 16:41:17.983664  6212 net.cpp:100] Creating Layer res5a_branch2a
I1129 16:41:17.983666  6212 net.cpp:444] res5a_branch2a <- res4b22_res4b22_relu_0_split_1
I1129 16:41:17.983669  6212 net.cpp:418] res5a_branch2a -> res5a_branch2a
I1129 16:41:17.985682  6212 net.cpp:150] Setting up res5a_branch2a
I1129 16:41:17.985692  6212 net.cpp:157] Top shape: 1 512 14 14 (100352)
I1129 16:41:17.985694  6212 net.cpp:165] Memory required for data: 349425676
I1129 16:41:17.985698  6212 layer_factory.hpp:77] Creating layer bn5a_branch2a
I1129 16:41:17.985702  6212 net.cpp:100] Creating Layer bn5a_branch2a
I1129 16:41:17.985704  6212 net.cpp:444] bn5a_branch2a <- res5a_branch2a
I1129 16:41:17.985709  6212 net.cpp:405] bn5a_branch2a -> res5a_branch2a (in-place)
I1129 16:41:17.986035  6212 net.cpp:150] Setting up bn5a_branch2a
I1129 16:41:17.986040  6212 net.cpp:157] Top shape: 1 512 14 14 (100352)
I1129 16:41:17.986042  6212 net.cpp:165] Memory required for data: 349827084
I1129 16:41:17.986047  6212 layer_factory.hpp:77] Creating layer scale5a_branch2a
I1129 16:41:17.986050  6212 net.cpp:100] Creating Layer scale5a_branch2a
I1129 16:41:17.986053  6212 net.cpp:444] scale5a_branch2a <- res5a_branch2a
I1129 16:41:17.986057  6212 net.cpp:405] scale5a_branch2a -> res5a_branch2a (in-place)
I1129 16:41:17.986105  6212 layer_factory.hpp:77] Creating layer scale5a_branch2a
I1129 16:41:17.986281  6212 net.cpp:150] Setting up scale5a_branch2a
I1129 16:41:17.986285  6212 net.cpp:157] Top shape: 1 512 14 14 (100352)
I1129 16:41:17.986287  6212 net.cpp:165] Memory required for data: 350228492
I1129 16:41:17.986291  6212 layer_factory.hpp:77] Creating layer res5a_branch2a_relu
I1129 16:41:17.986294  6212 net.cpp:100] Creating Layer res5a_branch2a_relu
I1129 16:41:17.986296  6212 net.cpp:444] res5a_branch2a_relu <- res5a_branch2a
I1129 16:41:17.986299  6212 net.cpp:405] res5a_branch2a_relu -> res5a_branch2a (in-place)
I1129 16:41:17.986435  6212 net.cpp:150] Setting up res5a_branch2a_relu
I1129 16:41:17.986440  6212 net.cpp:157] Top shape: 1 512 14 14 (100352)
I1129 16:41:17.986443  6212 net.cpp:165] Memory required for data: 350629900
I1129 16:41:17.986443  6212 layer_factory.hpp:77] Creating layer res5a_branch2b
I1129 16:41:17.986452  6212 net.cpp:100] Creating Layer res5a_branch2b
I1129 16:41:17.986454  6212 net.cpp:444] res5a_branch2b <- res5a_branch2a
I1129 16:41:17.986457  6212 net.cpp:418] res5a_branch2b -> res5a_branch2b
I1129 16:41:17.990650  6212 net.cpp:150] Setting up res5a_branch2b
I1129 16:41:17.990687  6212 net.cpp:157] Top shape: 1 512 14 14 (100352)
I1129 16:41:17.990689  6212 net.cpp:165] Memory required for data: 351031308
I1129 16:41:17.990700  6212 layer_factory.hpp:77] Creating layer bn5a_branch2b
I1129 16:41:17.990711  6212 net.cpp:100] Creating Layer bn5a_branch2b
I1129 16:41:17.990715  6212 net.cpp:444] bn5a_branch2b <- res5a_branch2b
I1129 16:41:17.990725  6212 net.cpp:405] bn5a_branch2b -> res5a_branch2b (in-place)
I1129 16:41:17.991103  6212 net.cpp:150] Setting up bn5a_branch2b
I1129 16:41:17.991109  6212 net.cpp:157] Top shape: 1 512 14 14 (100352)
I1129 16:41:17.991111  6212 net.cpp:165] Memory required for data: 351432716
I1129 16:41:17.991116  6212 layer_factory.hpp:77] Creating layer scale5a_branch2b
I1129 16:41:17.991122  6212 net.cpp:100] Creating Layer scale5a_branch2b
I1129 16:41:17.991123  6212 net.cpp:444] scale5a_branch2b <- res5a_branch2b
I1129 16:41:17.991127  6212 net.cpp:405] scale5a_branch2b -> res5a_branch2b (in-place)
I1129 16:41:17.991179  6212 layer_factory.hpp:77] Creating layer scale5a_branch2b
I1129 16:41:17.991355  6212 net.cpp:150] Setting up scale5a_branch2b
I1129 16:41:17.991359  6212 net.cpp:157] Top shape: 1 512 14 14 (100352)
I1129 16:41:17.991361  6212 net.cpp:165] Memory required for data: 351834124
I1129 16:41:17.991364  6212 layer_factory.hpp:77] Creating layer res5a_branch2b_relu
I1129 16:41:17.991369  6212 net.cpp:100] Creating Layer res5a_branch2b_relu
I1129 16:41:17.991371  6212 net.cpp:444] res5a_branch2b_relu <- res5a_branch2b
I1129 16:41:17.991374  6212 net.cpp:405] res5a_branch2b_relu -> res5a_branch2b (in-place)
I1129 16:41:17.991947  6212 net.cpp:150] Setting up res5a_branch2b_relu
I1129 16:41:17.991955  6212 net.cpp:157] Top shape: 1 512 14 14 (100352)
I1129 16:41:17.991958  6212 net.cpp:165] Memory required for data: 352235532
I1129 16:41:17.991961  6212 layer_factory.hpp:77] Creating layer res5a_branch2c
I1129 16:41:17.991966  6212 net.cpp:100] Creating Layer res5a_branch2c
I1129 16:41:17.991968  6212 net.cpp:444] res5a_branch2c <- res5a_branch2b
I1129 16:41:17.991973  6212 net.cpp:418] res5a_branch2c -> res5a_branch2c
I1129 16:41:17.994360  6212 net.cpp:150] Setting up res5a_branch2c
I1129 16:41:17.994381  6212 net.cpp:157] Top shape: 1 2048 14 14 (401408)
I1129 16:41:17.994384  6212 net.cpp:165] Memory required for data: 353841164
I1129 16:41:17.994390  6212 layer_factory.hpp:77] Creating layer bn5a_branch2c
I1129 16:41:17.994395  6212 net.cpp:100] Creating Layer bn5a_branch2c
I1129 16:41:17.994398  6212 net.cpp:444] bn5a_branch2c <- res5a_branch2c
I1129 16:41:17.994403  6212 net.cpp:405] bn5a_branch2c -> res5a_branch2c (in-place)
I1129 16:41:17.994751  6212 net.cpp:150] Setting up bn5a_branch2c
I1129 16:41:17.994757  6212 net.cpp:157] Top shape: 1 2048 14 14 (401408)
I1129 16:41:17.994760  6212 net.cpp:165] Memory required for data: 355446796
I1129 16:41:17.994763  6212 layer_factory.hpp:77] Creating layer scale5a_branch2c
I1129 16:41:17.994770  6212 net.cpp:100] Creating Layer scale5a_branch2c
I1129 16:41:17.994771  6212 net.cpp:444] scale5a_branch2c <- res5a_branch2c
I1129 16:41:17.994774  6212 net.cpp:405] scale5a_branch2c -> res5a_branch2c (in-place)
I1129 16:41:17.994834  6212 layer_factory.hpp:77] Creating layer scale5a_branch2c
I1129 16:41:17.995012  6212 net.cpp:150] Setting up scale5a_branch2c
I1129 16:41:17.995015  6212 net.cpp:157] Top shape: 1 2048 14 14 (401408)
I1129 16:41:17.995018  6212 net.cpp:165] Memory required for data: 357052428
I1129 16:41:17.995020  6212 layer_factory.hpp:77] Creating layer res5a
I1129 16:41:17.995025  6212 net.cpp:100] Creating Layer res5a
I1129 16:41:17.995028  6212 net.cpp:444] res5a <- res5a_branch1
I1129 16:41:17.995029  6212 net.cpp:444] res5a <- res5a_branch2c
I1129 16:41:17.995033  6212 net.cpp:418] res5a -> res5a
I1129 16:41:17.995062  6212 net.cpp:150] Setting up res5a
I1129 16:41:17.995065  6212 net.cpp:157] Top shape: 1 2048 14 14 (401408)
I1129 16:41:17.995067  6212 net.cpp:165] Memory required for data: 358658060
I1129 16:41:17.995069  6212 layer_factory.hpp:77] Creating layer res5a_relu
I1129 16:41:17.995074  6212 net.cpp:100] Creating Layer res5a_relu
I1129 16:41:17.995076  6212 net.cpp:444] res5a_relu <- res5a
I1129 16:41:17.995079  6212 net.cpp:405] res5a_relu -> res5a (in-place)
I1129 16:41:17.995659  6212 net.cpp:150] Setting up res5a_relu
I1129 16:41:17.995667  6212 net.cpp:157] Top shape: 1 2048 14 14 (401408)
I1129 16:41:17.995669  6212 net.cpp:165] Memory required for data: 360263692
I1129 16:41:17.995671  6212 layer_factory.hpp:77] Creating layer res5a_res5a_relu_0_split
I1129 16:41:17.995676  6212 net.cpp:100] Creating Layer res5a_res5a_relu_0_split
I1129 16:41:17.995677  6212 net.cpp:444] res5a_res5a_relu_0_split <- res5a
I1129 16:41:17.995682  6212 net.cpp:418] res5a_res5a_relu_0_split -> res5a_res5a_relu_0_split_0
I1129 16:41:17.995685  6212 net.cpp:418] res5a_res5a_relu_0_split -> res5a_res5a_relu_0_split_1
I1129 16:41:17.995759  6212 net.cpp:150] Setting up res5a_res5a_relu_0_split
I1129 16:41:17.995764  6212 net.cpp:157] Top shape: 1 2048 14 14 (401408)
I1129 16:41:17.995766  6212 net.cpp:157] Top shape: 1 2048 14 14 (401408)
I1129 16:41:17.995767  6212 net.cpp:165] Memory required for data: 363474956
I1129 16:41:17.995769  6212 layer_factory.hpp:77] Creating layer res5b_branch2a
I1129 16:41:17.995779  6212 net.cpp:100] Creating Layer res5b_branch2a
I1129 16:41:17.995780  6212 net.cpp:444] res5b_branch2a <- res5a_res5a_relu_0_split_0
I1129 16:41:17.995784  6212 net.cpp:418] res5b_branch2a -> res5b_branch2a
I1129 16:41:17.999071  6212 net.cpp:150] Setting up res5b_branch2a
I1129 16:41:17.999090  6212 net.cpp:157] Top shape: 1 512 14 14 (100352)
I1129 16:41:17.999094  6212 net.cpp:165] Memory required for data: 363876364
I1129 16:41:17.999100  6212 layer_factory.hpp:77] Creating layer bn5b_branch2a
I1129 16:41:17.999109  6212 net.cpp:100] Creating Layer bn5b_branch2a
I1129 16:41:17.999112  6212 net.cpp:444] bn5b_branch2a <- res5b_branch2a
I1129 16:41:17.999117  6212 net.cpp:405] bn5b_branch2a -> res5b_branch2a (in-place)
I1129 16:41:17.999467  6212 net.cpp:150] Setting up bn5b_branch2a
I1129 16:41:17.999472  6212 net.cpp:157] Top shape: 1 512 14 14 (100352)
I1129 16:41:17.999474  6212 net.cpp:165] Memory required for data: 364277772
I1129 16:41:17.999478  6212 layer_factory.hpp:77] Creating layer scale5b_branch2a
I1129 16:41:17.999486  6212 net.cpp:100] Creating Layer scale5b_branch2a
I1129 16:41:17.999488  6212 net.cpp:444] scale5b_branch2a <- res5b_branch2a
I1129 16:41:17.999491  6212 net.cpp:405] scale5b_branch2a -> res5b_branch2a (in-place)
I1129 16:41:17.999548  6212 layer_factory.hpp:77] Creating layer scale5b_branch2a
I1129 16:41:17.999737  6212 net.cpp:150] Setting up scale5b_branch2a
I1129 16:41:17.999740  6212 net.cpp:157] Top shape: 1 512 14 14 (100352)
I1129 16:41:17.999742  6212 net.cpp:165] Memory required for data: 364679180
I1129 16:41:17.999745  6212 layer_factory.hpp:77] Creating layer res5b_branch2a_relu
I1129 16:41:17.999748  6212 net.cpp:100] Creating Layer res5b_branch2a_relu
I1129 16:41:17.999750  6212 net.cpp:444] res5b_branch2a_relu <- res5b_branch2a
I1129 16:41:17.999752  6212 net.cpp:405] res5b_branch2a_relu -> res5b_branch2a (in-place)
I1129 16:41:17.999904  6212 net.cpp:150] Setting up res5b_branch2a_relu
I1129 16:41:17.999909  6212 net.cpp:157] Top shape: 1 512 14 14 (100352)
I1129 16:41:17.999912  6212 net.cpp:165] Memory required for data: 365080588
I1129 16:41:17.999913  6212 layer_factory.hpp:77] Creating layer res5b_branch2b
I1129 16:41:17.999918  6212 net.cpp:100] Creating Layer res5b_branch2b
I1129 16:41:17.999920  6212 net.cpp:444] res5b_branch2b <- res5b_branch2a
I1129 16:41:17.999923  6212 net.cpp:418] res5b_branch2b -> res5b_branch2b
I1129 16:41:18.004673  6212 net.cpp:150] Setting up res5b_branch2b
I1129 16:41:18.004696  6212 net.cpp:157] Top shape: 1 512 14 14 (100352)
I1129 16:41:18.004698  6212 net.cpp:165] Memory required for data: 365481996
I1129 16:41:18.004704  6212 layer_factory.hpp:77] Creating layer bn5b_branch2b
I1129 16:41:18.004712  6212 net.cpp:100] Creating Layer bn5b_branch2b
I1129 16:41:18.004716  6212 net.cpp:444] bn5b_branch2b <- res5b_branch2b
I1129 16:41:18.004720  6212 net.cpp:405] bn5b_branch2b -> res5b_branch2b (in-place)
I1129 16:41:18.005833  6212 net.cpp:150] Setting up bn5b_branch2b
I1129 16:41:18.005846  6212 net.cpp:157] Top shape: 1 512 14 14 (100352)
I1129 16:41:18.005847  6212 net.cpp:165] Memory required for data: 365883404
I1129 16:41:18.005853  6212 layer_factory.hpp:77] Creating layer scale5b_branch2b
I1129 16:41:18.005859  6212 net.cpp:100] Creating Layer scale5b_branch2b
I1129 16:41:18.005862  6212 net.cpp:444] scale5b_branch2b <- res5b_branch2b
I1129 16:41:18.005867  6212 net.cpp:405] scale5b_branch2b -> res5b_branch2b (in-place)
I1129 16:41:18.005942  6212 layer_factory.hpp:77] Creating layer scale5b_branch2b
I1129 16:41:18.006074  6212 net.cpp:150] Setting up scale5b_branch2b
I1129 16:41:18.006078  6212 net.cpp:157] Top shape: 1 512 14 14 (100352)
I1129 16:41:18.006080  6212 net.cpp:165] Memory required for data: 366284812
I1129 16:41:18.006083  6212 layer_factory.hpp:77] Creating layer res5b_branch2b_relu
I1129 16:41:18.006088  6212 net.cpp:100] Creating Layer res5b_branch2b_relu
I1129 16:41:18.006089  6212 net.cpp:444] res5b_branch2b_relu <- res5b_branch2b
I1129 16:41:18.006091  6212 net.cpp:405] res5b_branch2b_relu -> res5b_branch2b (in-place)
I1129 16:41:18.006352  6212 net.cpp:150] Setting up res5b_branch2b_relu
I1129 16:41:18.006358  6212 net.cpp:157] Top shape: 1 512 14 14 (100352)
I1129 16:41:18.006361  6212 net.cpp:165] Memory required for data: 366686220
I1129 16:41:18.006363  6212 layer_factory.hpp:77] Creating layer res5b_branch2c
I1129 16:41:18.006373  6212 net.cpp:100] Creating Layer res5b_branch2c
I1129 16:41:18.006376  6212 net.cpp:444] res5b_branch2c <- res5b_branch2b
I1129 16:41:18.006379  6212 net.cpp:418] res5b_branch2c -> res5b_branch2c
I1129 16:41:18.010291  6212 net.cpp:150] Setting up res5b_branch2c
I1129 16:41:18.010329  6212 net.cpp:157] Top shape: 1 2048 14 14 (401408)
I1129 16:41:18.010331  6212 net.cpp:165] Memory required for data: 368291852
I1129 16:41:18.010344  6212 layer_factory.hpp:77] Creating layer bn5b_branch2c
I1129 16:41:18.010365  6212 net.cpp:100] Creating Layer bn5b_branch2c
I1129 16:41:18.010371  6212 net.cpp:444] bn5b_branch2c <- res5b_branch2c
I1129 16:41:18.010378  6212 net.cpp:405] bn5b_branch2c -> res5b_branch2c (in-place)
I1129 16:41:18.010712  6212 net.cpp:150] Setting up bn5b_branch2c
I1129 16:41:18.010720  6212 net.cpp:157] Top shape: 1 2048 14 14 (401408)
I1129 16:41:18.010721  6212 net.cpp:165] Memory required for data: 369897484
I1129 16:41:18.010726  6212 layer_factory.hpp:77] Creating layer scale5b_branch2c
I1129 16:41:18.010732  6212 net.cpp:100] Creating Layer scale5b_branch2c
I1129 16:41:18.010735  6212 net.cpp:444] scale5b_branch2c <- res5b_branch2c
I1129 16:41:18.010738  6212 net.cpp:405] scale5b_branch2c -> res5b_branch2c (in-place)
I1129 16:41:18.010789  6212 layer_factory.hpp:77] Creating layer scale5b_branch2c
I1129 16:41:18.010936  6212 net.cpp:150] Setting up scale5b_branch2c
I1129 16:41:18.010941  6212 net.cpp:157] Top shape: 1 2048 14 14 (401408)
I1129 16:41:18.010943  6212 net.cpp:165] Memory required for data: 371503116
I1129 16:41:18.010946  6212 layer_factory.hpp:77] Creating layer res5b
I1129 16:41:18.010951  6212 net.cpp:100] Creating Layer res5b
I1129 16:41:18.010953  6212 net.cpp:444] res5b <- res5a_res5a_relu_0_split_1
I1129 16:41:18.010956  6212 net.cpp:444] res5b <- res5b_branch2c
I1129 16:41:18.010958  6212 net.cpp:418] res5b -> res5b
I1129 16:41:18.010983  6212 net.cpp:150] Setting up res5b
I1129 16:41:18.010987  6212 net.cpp:157] Top shape: 1 2048 14 14 (401408)
I1129 16:41:18.010989  6212 net.cpp:165] Memory required for data: 373108748
I1129 16:41:18.010990  6212 layer_factory.hpp:77] Creating layer res5b_relu
I1129 16:41:18.010994  6212 net.cpp:100] Creating Layer res5b_relu
I1129 16:41:18.010996  6212 net.cpp:444] res5b_relu <- res5b
I1129 16:41:18.010999  6212 net.cpp:405] res5b_relu -> res5b (in-place)
I1129 16:41:18.011178  6212 net.cpp:150] Setting up res5b_relu
I1129 16:41:18.011183  6212 net.cpp:157] Top shape: 1 2048 14 14 (401408)
I1129 16:41:18.011185  6212 net.cpp:165] Memory required for data: 374714380
I1129 16:41:18.011188  6212 layer_factory.hpp:77] Creating layer res5b_res5b_relu_0_split
I1129 16:41:18.011190  6212 net.cpp:100] Creating Layer res5b_res5b_relu_0_split
I1129 16:41:18.011193  6212 net.cpp:444] res5b_res5b_relu_0_split <- res5b
I1129 16:41:18.011196  6212 net.cpp:418] res5b_res5b_relu_0_split -> res5b_res5b_relu_0_split_0
I1129 16:41:18.011199  6212 net.cpp:418] res5b_res5b_relu_0_split -> res5b_res5b_relu_0_split_1
I1129 16:41:18.011241  6212 net.cpp:150] Setting up res5b_res5b_relu_0_split
I1129 16:41:18.011245  6212 net.cpp:157] Top shape: 1 2048 14 14 (401408)
I1129 16:41:18.011247  6212 net.cpp:157] Top shape: 1 2048 14 14 (401408)
I1129 16:41:18.011248  6212 net.cpp:165] Memory required for data: 377925644
I1129 16:41:18.011250  6212 layer_factory.hpp:77] Creating layer res5c_branch2a
I1129 16:41:18.011256  6212 net.cpp:100] Creating Layer res5c_branch2a
I1129 16:41:18.011260  6212 net.cpp:444] res5c_branch2a <- res5b_res5b_relu_0_split_0
I1129 16:41:18.011263  6212 net.cpp:418] res5c_branch2a -> res5c_branch2a
I1129 16:41:18.015728  6212 net.cpp:150] Setting up res5c_branch2a
I1129 16:41:18.015755  6212 net.cpp:157] Top shape: 1 512 14 14 (100352)
I1129 16:41:18.015758  6212 net.cpp:165] Memory required for data: 378327052
I1129 16:41:18.015768  6212 layer_factory.hpp:77] Creating layer bn5c_branch2a
I1129 16:41:18.015779  6212 net.cpp:100] Creating Layer bn5c_branch2a
I1129 16:41:18.015794  6212 net.cpp:444] bn5c_branch2a <- res5c_branch2a
I1129 16:41:18.015799  6212 net.cpp:405] bn5c_branch2a -> res5c_branch2a (in-place)
I1129 16:41:18.016058  6212 net.cpp:150] Setting up bn5c_branch2a
I1129 16:41:18.016064  6212 net.cpp:157] Top shape: 1 512 14 14 (100352)
I1129 16:41:18.016065  6212 net.cpp:165] Memory required for data: 378728460
I1129 16:41:18.016070  6212 layer_factory.hpp:77] Creating layer scale5c_branch2a
I1129 16:41:18.016074  6212 net.cpp:100] Creating Layer scale5c_branch2a
I1129 16:41:18.016077  6212 net.cpp:444] scale5c_branch2a <- res5c_branch2a
I1129 16:41:18.016079  6212 net.cpp:405] scale5c_branch2a -> res5c_branch2a (in-place)
I1129 16:41:18.016129  6212 layer_factory.hpp:77] Creating layer scale5c_branch2a
I1129 16:41:18.016255  6212 net.cpp:150] Setting up scale5c_branch2a
I1129 16:41:18.016260  6212 net.cpp:157] Top shape: 1 512 14 14 (100352)
I1129 16:41:18.016261  6212 net.cpp:165] Memory required for data: 379129868
I1129 16:41:18.016264  6212 layer_factory.hpp:77] Creating layer res5c_branch2a_relu
I1129 16:41:18.016268  6212 net.cpp:100] Creating Layer res5c_branch2a_relu
I1129 16:41:18.016270  6212 net.cpp:444] res5c_branch2a_relu <- res5c_branch2a
I1129 16:41:18.016273  6212 net.cpp:405] res5c_branch2a_relu -> res5c_branch2a (in-place)
I1129 16:41:18.016417  6212 net.cpp:150] Setting up res5c_branch2a_relu
I1129 16:41:18.016422  6212 net.cpp:157] Top shape: 1 512 14 14 (100352)
I1129 16:41:18.016423  6212 net.cpp:165] Memory required for data: 379531276
I1129 16:41:18.016424  6212 layer_factory.hpp:77] Creating layer res5c_branch2b
I1129 16:41:18.016430  6212 net.cpp:100] Creating Layer res5c_branch2b
I1129 16:41:18.016433  6212 net.cpp:444] res5c_branch2b <- res5c_branch2a
I1129 16:41:18.016436  6212 net.cpp:418] res5c_branch2b -> res5c_branch2b
I1129 16:41:18.020550  6212 net.cpp:150] Setting up res5c_branch2b
I1129 16:41:18.020583  6212 net.cpp:157] Top shape: 1 512 14 14 (100352)
I1129 16:41:18.020586  6212 net.cpp:165] Memory required for data: 379932684
I1129 16:41:18.020596  6212 layer_factory.hpp:77] Creating layer bn5c_branch2b
I1129 16:41:18.020609  6212 net.cpp:100] Creating Layer bn5c_branch2b
I1129 16:41:18.020615  6212 net.cpp:444] bn5c_branch2b <- res5c_branch2b
I1129 16:41:18.020622  6212 net.cpp:405] bn5c_branch2b -> res5c_branch2b (in-place)
I1129 16:41:18.020948  6212 net.cpp:150] Setting up bn5c_branch2b
I1129 16:41:18.020952  6212 net.cpp:157] Top shape: 1 512 14 14 (100352)
I1129 16:41:18.020954  6212 net.cpp:165] Memory required for data: 380334092
I1129 16:41:18.020958  6212 layer_factory.hpp:77] Creating layer scale5c_branch2b
I1129 16:41:18.020965  6212 net.cpp:100] Creating Layer scale5c_branch2b
I1129 16:41:18.020967  6212 net.cpp:444] scale5c_branch2b <- res5c_branch2b
I1129 16:41:18.020970  6212 net.cpp:405] scale5c_branch2b -> res5c_branch2b (in-place)
I1129 16:41:18.021016  6212 layer_factory.hpp:77] Creating layer scale5c_branch2b
I1129 16:41:18.021147  6212 net.cpp:150] Setting up scale5c_branch2b
I1129 16:41:18.021150  6212 net.cpp:157] Top shape: 1 512 14 14 (100352)
I1129 16:41:18.021152  6212 net.cpp:165] Memory required for data: 380735500
I1129 16:41:18.021155  6212 layer_factory.hpp:77] Creating layer res5c_branch2b_relu
I1129 16:41:18.021158  6212 net.cpp:100] Creating Layer res5c_branch2b_relu
I1129 16:41:18.021160  6212 net.cpp:444] res5c_branch2b_relu <- res5c_branch2b
I1129 16:41:18.021163  6212 net.cpp:405] res5c_branch2b_relu -> res5c_branch2b (in-place)
I1129 16:41:18.021757  6212 net.cpp:150] Setting up res5c_branch2b_relu
I1129 16:41:18.021765  6212 net.cpp:157] Top shape: 1 512 14 14 (100352)
I1129 16:41:18.021766  6212 net.cpp:165] Memory required for data: 381136908
I1129 16:41:18.021770  6212 layer_factory.hpp:77] Creating layer res5c_branch2c
I1129 16:41:18.021775  6212 net.cpp:100] Creating Layer res5c_branch2c
I1129 16:41:18.021777  6212 net.cpp:444] res5c_branch2c <- res5c_branch2b
I1129 16:41:18.021781  6212 net.cpp:418] res5c_branch2c -> res5c_branch2c
I1129 16:41:18.024500  6212 net.cpp:150] Setting up res5c_branch2c
I1129 16:41:18.024519  6212 net.cpp:157] Top shape: 1 2048 14 14 (401408)
I1129 16:41:18.024521  6212 net.cpp:165] Memory required for data: 382742540
I1129 16:41:18.024528  6212 layer_factory.hpp:77] Creating layer bn5c_branch2c
I1129 16:41:18.024535  6212 net.cpp:100] Creating Layer bn5c_branch2c
I1129 16:41:18.024539  6212 net.cpp:444] bn5c_branch2c <- res5c_branch2c
I1129 16:41:18.024546  6212 net.cpp:405] bn5c_branch2c -> res5c_branch2c (in-place)
I1129 16:41:18.024821  6212 net.cpp:150] Setting up bn5c_branch2c
I1129 16:41:18.024827  6212 net.cpp:157] Top shape: 1 2048 14 14 (401408)
I1129 16:41:18.024827  6212 net.cpp:165] Memory required for data: 384348172
I1129 16:41:18.024832  6212 layer_factory.hpp:77] Creating layer scale5c_branch2c
I1129 16:41:18.024837  6212 net.cpp:100] Creating Layer scale5c_branch2c
I1129 16:41:18.024839  6212 net.cpp:444] scale5c_branch2c <- res5c_branch2c
I1129 16:41:18.024842  6212 net.cpp:405] scale5c_branch2c -> res5c_branch2c (in-place)
I1129 16:41:18.024888  6212 layer_factory.hpp:77] Creating layer scale5c_branch2c
I1129 16:41:18.025020  6212 net.cpp:150] Setting up scale5c_branch2c
I1129 16:41:18.025025  6212 net.cpp:157] Top shape: 1 2048 14 14 (401408)
I1129 16:41:18.025027  6212 net.cpp:165] Memory required for data: 385953804
I1129 16:41:18.025030  6212 layer_factory.hpp:77] Creating layer res5c
I1129 16:41:18.025033  6212 net.cpp:100] Creating Layer res5c
I1129 16:41:18.025037  6212 net.cpp:444] res5c <- res5b_res5b_relu_0_split_1
I1129 16:41:18.025039  6212 net.cpp:444] res5c <- res5c_branch2c
I1129 16:41:18.025043  6212 net.cpp:418] res5c -> res5c
I1129 16:41:18.025065  6212 net.cpp:150] Setting up res5c
I1129 16:41:18.025069  6212 net.cpp:157] Top shape: 1 2048 14 14 (401408)
I1129 16:41:18.025071  6212 net.cpp:165] Memory required for data: 387559436
I1129 16:41:18.025073  6212 layer_factory.hpp:77] Creating layer res5c_relu
I1129 16:41:18.025076  6212 net.cpp:100] Creating Layer res5c_relu
I1129 16:41:18.025079  6212 net.cpp:444] res5c_relu <- res5c
I1129 16:41:18.025080  6212 net.cpp:405] res5c_relu -> res5c (in-place)
I1129 16:41:18.025221  6212 net.cpp:150] Setting up res5c_relu
I1129 16:41:18.025226  6212 net.cpp:157] Top shape: 1 2048 14 14 (401408)
I1129 16:41:18.025228  6212 net.cpp:165] Memory required for data: 389165068
I1129 16:41:18.025230  6212 layer_factory.hpp:77] Creating layer rpn_conv/3x3
I1129 16:41:18.025236  6212 net.cpp:100] Creating Layer rpn_conv/3x3
I1129 16:41:18.025239  6212 net.cpp:444] rpn_conv/3x3 <- res4b22_res4b22_relu_0_split_2
I1129 16:41:18.025243  6212 net.cpp:418] rpn_conv/3x3 -> rpn/output
I1129 16:41:18.061599  6212 net.cpp:150] Setting up rpn_conv/3x3
I1129 16:41:18.061619  6212 net.cpp:157] Top shape: 1 512 14 14 (100352)
I1129 16:41:18.061621  6212 net.cpp:165] Memory required for data: 389566476
I1129 16:41:18.061628  6212 layer_factory.hpp:77] Creating layer rpn_relu/3x3
I1129 16:41:18.061635  6212 net.cpp:100] Creating Layer rpn_relu/3x3
I1129 16:41:18.061637  6212 net.cpp:444] rpn_relu/3x3 <- rpn/output
I1129 16:41:18.061641  6212 net.cpp:405] rpn_relu/3x3 -> rpn/output (in-place)
I1129 16:41:18.061789  6212 net.cpp:150] Setting up rpn_relu/3x3
I1129 16:41:18.061794  6212 net.cpp:157] Top shape: 1 512 14 14 (100352)
I1129 16:41:18.061795  6212 net.cpp:165] Memory required for data: 389967884
I1129 16:41:18.061797  6212 layer_factory.hpp:77] Creating layer rpn/output_rpn_relu/3x3_0_split
I1129 16:41:18.061801  6212 net.cpp:100] Creating Layer rpn/output_rpn_relu/3x3_0_split
I1129 16:41:18.061803  6212 net.cpp:444] rpn/output_rpn_relu/3x3_0_split <- rpn/output
I1129 16:41:18.061806  6212 net.cpp:418] rpn/output_rpn_relu/3x3_0_split -> rpn/output_rpn_relu/3x3_0_split_0
I1129 16:41:18.061811  6212 net.cpp:418] rpn/output_rpn_relu/3x3_0_split -> rpn/output_rpn_relu/3x3_0_split_1
I1129 16:41:18.061861  6212 net.cpp:150] Setting up rpn/output_rpn_relu/3x3_0_split
I1129 16:41:18.061864  6212 net.cpp:157] Top shape: 1 512 14 14 (100352)
I1129 16:41:18.061866  6212 net.cpp:157] Top shape: 1 512 14 14 (100352)
I1129 16:41:18.061868  6212 net.cpp:165] Memory required for data: 390770700
I1129 16:41:18.061869  6212 layer_factory.hpp:77] Creating layer rpn_cls_score
I1129 16:41:18.061877  6212 net.cpp:100] Creating Layer rpn_cls_score
I1129 16:41:18.061878  6212 net.cpp:444] rpn_cls_score <- rpn/output_rpn_relu/3x3_0_split_0
I1129 16:41:18.061882  6212 net.cpp:418] rpn_cls_score -> rpn_cls_score
I1129 16:41:18.063016  6212 net.cpp:150] Setting up rpn_cls_score
I1129 16:41:18.063024  6212 net.cpp:157] Top shape: 1 18 14 14 (3528)
I1129 16:41:18.063026  6212 net.cpp:165] Memory required for data: 390784812
I1129 16:41:18.063030  6212 layer_factory.hpp:77] Creating layer rpn_bbox_pred
I1129 16:41:18.063035  6212 net.cpp:100] Creating Layer rpn_bbox_pred
I1129 16:41:18.063037  6212 net.cpp:444] rpn_bbox_pred <- rpn/output_rpn_relu/3x3_0_split_1
I1129 16:41:18.063041  6212 net.cpp:418] rpn_bbox_pred -> rpn_bbox_pred
I1129 16:41:18.064180  6212 net.cpp:150] Setting up rpn_bbox_pred
I1129 16:41:18.064188  6212 net.cpp:157] Top shape: 1 36 14 14 (7056)
I1129 16:41:18.064189  6212 net.cpp:165] Memory required for data: 390813036
I1129 16:41:18.064193  6212 layer_factory.hpp:77] Creating layer rpn_cls_score_reshape
I1129 16:41:18.064199  6212 net.cpp:100] Creating Layer rpn_cls_score_reshape
I1129 16:41:18.064201  6212 net.cpp:444] rpn_cls_score_reshape <- rpn_cls_score
I1129 16:41:18.064204  6212 net.cpp:418] rpn_cls_score_reshape -> rpn_cls_score_reshape
I1129 16:41:18.064234  6212 net.cpp:150] Setting up rpn_cls_score_reshape
I1129 16:41:18.064236  6212 net.cpp:157] Top shape: 1 2 126 14 (3528)
I1129 16:41:18.064239  6212 net.cpp:165] Memory required for data: 390827148
I1129 16:41:18.064240  6212 layer_factory.hpp:77] Creating layer rpn_cls_prob
I1129 16:41:18.064244  6212 net.cpp:100] Creating Layer rpn_cls_prob
I1129 16:41:18.064245  6212 net.cpp:444] rpn_cls_prob <- rpn_cls_score_reshape
I1129 16:41:18.064249  6212 net.cpp:418] rpn_cls_prob -> rpn_cls_prob
I1129 16:41:18.064448  6212 net.cpp:150] Setting up rpn_cls_prob
I1129 16:41:18.064453  6212 net.cpp:157] Top shape: 1 2 126 14 (3528)
I1129 16:41:18.064455  6212 net.cpp:165] Memory required for data: 390841260
I1129 16:41:18.064457  6212 layer_factory.hpp:77] Creating layer rpn_cls_prob_reshape
I1129 16:41:18.064460  6212 net.cpp:100] Creating Layer rpn_cls_prob_reshape
I1129 16:41:18.064461  6212 net.cpp:444] rpn_cls_prob_reshape <- rpn_cls_prob
I1129 16:41:18.064465  6212 net.cpp:418] rpn_cls_prob_reshape -> rpn_cls_prob_reshape
I1129 16:41:18.064488  6212 net.cpp:150] Setting up rpn_cls_prob_reshape
I1129 16:41:18.064491  6212 net.cpp:157] Top shape: 1 18 14 14 (3528)
I1129 16:41:18.064492  6212 net.cpp:165] Memory required for data: 390855372
I1129 16:41:18.064493  6212 layer_factory.hpp:77] Creating layer proposal
I1129 16:41:18.064872  6212 net.cpp:100] Creating Layer proposal
I1129 16:41:18.064879  6212 net.cpp:444] proposal <- rpn_cls_prob_reshape
I1129 16:41:18.064882  6212 net.cpp:444] proposal <- rpn_bbox_pred
I1129 16:41:18.064885  6212 net.cpp:444] proposal <- im_info
I1129 16:41:18.064888  6212 net.cpp:418] proposal -> rois
I1129 16:41:18.065366  6212 net.cpp:150] Setting up proposal
I1129 16:41:18.065374  6212 net.cpp:157] Top shape: 1 5 (5)
I1129 16:41:18.065376  6212 net.cpp:165] Memory required for data: 390855392
I1129 16:41:18.065378  6212 layer_factory.hpp:77] Creating layer rois_proposal_0_split
I1129 16:41:18.065382  6212 net.cpp:100] Creating Layer rois_proposal_0_split
I1129 16:41:18.065384  6212 net.cpp:444] rois_proposal_0_split <- rois
I1129 16:41:18.065388  6212 net.cpp:418] rois_proposal_0_split -> rois_proposal_0_split_0
I1129 16:41:18.065394  6212 net.cpp:418] rois_proposal_0_split -> rois_proposal_0_split_1
I1129 16:41:18.065434  6212 net.cpp:150] Setting up rois_proposal_0_split
I1129 16:41:18.065438  6212 net.cpp:157] Top shape: 1 5 (5)
I1129 16:41:18.065440  6212 net.cpp:157] Top shape: 1 5 (5)
I1129 16:41:18.065441  6212 net.cpp:165] Memory required for data: 390855432
I1129 16:41:18.065443  6212 layer_factory.hpp:77] Creating layer conv_new_1
I1129 16:41:18.065448  6212 net.cpp:100] Creating Layer conv_new_1
I1129 16:41:18.065451  6212 net.cpp:444] conv_new_1 <- res5c
I1129 16:41:18.065455  6212 net.cpp:418] conv_new_1 -> conv_new_1
I1129 16:41:18.082509  6212 net.cpp:150] Setting up conv_new_1
I1129 16:41:18.082527  6212 net.cpp:157] Top shape: 1 1024 14 14 (200704)
I1129 16:41:18.082530  6212 net.cpp:165] Memory required for data: 391658248
I1129 16:41:18.082536  6212 layer_factory.hpp:77] Creating layer conv_new_1_relu
I1129 16:41:18.082543  6212 net.cpp:100] Creating Layer conv_new_1_relu
I1129 16:41:18.082545  6212 net.cpp:444] conv_new_1_relu <- conv_new_1
I1129 16:41:18.082550  6212 net.cpp:405] conv_new_1_relu -> conv_new_1 (in-place)
I1129 16:41:18.082689  6212 net.cpp:150] Setting up conv_new_1_relu
I1129 16:41:18.082695  6212 net.cpp:157] Top shape: 1 1024 14 14 (200704)
I1129 16:41:18.082696  6212 net.cpp:165] Memory required for data: 392461064
I1129 16:41:18.082698  6212 layer_factory.hpp:77] Creating layer conv_new_1_conv_new_1_relu_0_split
I1129 16:41:18.082701  6212 net.cpp:100] Creating Layer conv_new_1_conv_new_1_relu_0_split
I1129 16:41:18.082703  6212 net.cpp:444] conv_new_1_conv_new_1_relu_0_split <- conv_new_1
I1129 16:41:18.082706  6212 net.cpp:418] conv_new_1_conv_new_1_relu_0_split -> conv_new_1_conv_new_1_relu_0_split_0
I1129 16:41:18.082711  6212 net.cpp:418] conv_new_1_conv_new_1_relu_0_split -> conv_new_1_conv_new_1_relu_0_split_1
I1129 16:41:18.082768  6212 net.cpp:150] Setting up conv_new_1_conv_new_1_relu_0_split
I1129 16:41:18.082772  6212 net.cpp:157] Top shape: 1 1024 14 14 (200704)
I1129 16:41:18.082774  6212 net.cpp:157] Top shape: 1 1024 14 14 (200704)
I1129 16:41:18.082775  6212 net.cpp:165] Memory required for data: 394066696
I1129 16:41:18.082777  6212 layer_factory.hpp:77] Creating layer rfcn_cls
I1129 16:41:18.082784  6212 net.cpp:100] Creating Layer rfcn_cls
I1129 16:41:18.082787  6212 net.cpp:444] rfcn_cls <- conv_new_1_conv_new_1_relu_0_split_0
I1129 16:41:18.082792  6212 net.cpp:418] rfcn_cls -> rfcn_cls
I1129 16:41:18.085453  6212 net.cpp:150] Setting up rfcn_cls
I1129 16:41:18.085461  6212 net.cpp:157] Top shape: 1 245 14 14 (48020)
I1129 16:41:18.085464  6212 net.cpp:165] Memory required for data: 394258776
I1129 16:41:18.085469  6212 layer_factory.hpp:77] Creating layer rfcn_bbox
I1129 16:41:18.085474  6212 net.cpp:100] Creating Layer rfcn_bbox
I1129 16:41:18.085476  6212 net.cpp:444] rfcn_bbox <- conv_new_1_conv_new_1_relu_0_split_1
I1129 16:41:18.085482  6212 net.cpp:418] rfcn_bbox -> rfcn_bbox
I1129 16:41:18.089876  6212 net.cpp:150] Setting up rfcn_bbox
I1129 16:41:18.089887  6212 net.cpp:157] Top shape: 1 392 14 14 (76832)
I1129 16:41:18.089890  6212 net.cpp:165] Memory required for data: 394566104
I1129 16:41:18.089895  6212 layer_factory.hpp:77] Creating layer psroipooled_cls_rois
I1129 16:41:18.089900  6212 net.cpp:100] Creating Layer psroipooled_cls_rois
I1129 16:41:18.089905  6212 net.cpp:444] psroipooled_cls_rois <- rfcn_cls
I1129 16:41:18.089908  6212 net.cpp:444] psroipooled_cls_rois <- rois_proposal_0_split_0
I1129 16:41:18.089913  6212 net.cpp:418] psroipooled_cls_rois -> psroipooled_cls_rois
I1129 16:41:18.089920  6212 psroi_pooling_layer.cpp:26] Spatial scale: 0.0625
I1129 16:41:18.089978  6212 net.cpp:150] Setting up psroipooled_cls_rois
I1129 16:41:18.089982  6212 net.cpp:157] Top shape: 1 5 7 7 (245)
I1129 16:41:18.089984  6212 net.cpp:165] Memory required for data: 394567084
I1129 16:41:18.089985  6212 layer_factory.hpp:77] Creating layer ave_cls_score_rois
I1129 16:41:18.089992  6212 net.cpp:100] Creating Layer ave_cls_score_rois
I1129 16:41:18.089993  6212 net.cpp:444] ave_cls_score_rois <- psroipooled_cls_rois
I1129 16:41:18.089996  6212 net.cpp:418] ave_cls_score_rois -> cls_score
I1129 16:41:18.090154  6212 net.cpp:150] Setting up ave_cls_score_rois
I1129 16:41:18.090160  6212 net.cpp:157] Top shape: 1 5 1 1 (5)
I1129 16:41:18.090162  6212 net.cpp:165] Memory required for data: 394567104
I1129 16:41:18.090163  6212 layer_factory.hpp:77] Creating layer psroipooled_loc_rois
I1129 16:41:18.090168  6212 net.cpp:100] Creating Layer psroipooled_loc_rois
I1129 16:41:18.090171  6212 net.cpp:444] psroipooled_loc_rois <- rfcn_bbox
I1129 16:41:18.090173  6212 net.cpp:444] psroipooled_loc_rois <- rois_proposal_0_split_1
I1129 16:41:18.090178  6212 net.cpp:418] psroipooled_loc_rois -> psroipooled_loc_rois
I1129 16:41:18.090183  6212 psroi_pooling_layer.cpp:26] Spatial scale: 0.0625
I1129 16:41:18.090221  6212 net.cpp:150] Setting up psroipooled_loc_rois
I1129 16:41:18.090224  6212 net.cpp:157] Top shape: 1 8 7 7 (392)
I1129 16:41:18.090226  6212 net.cpp:165] Memory required for data: 394568672
I1129 16:41:18.090227  6212 layer_factory.hpp:77] Creating layer ave_bbox_pred_rois
I1129 16:41:18.090231  6212 net.cpp:100] Creating Layer ave_bbox_pred_rois
I1129 16:41:18.090234  6212 net.cpp:444] ave_bbox_pred_rois <- psroipooled_loc_rois
I1129 16:41:18.090237  6212 net.cpp:418] ave_bbox_pred_rois -> bbox_pred_pre
I1129 16:41:18.090693  6212 net.cpp:150] Setting up ave_bbox_pred_rois
I1129 16:41:18.090700  6212 net.cpp:157] Top shape: 1 8 1 1 (8)
I1129 16:41:18.090703  6212 net.cpp:165] Memory required for data: 394568704
I1129 16:41:18.090703  6212 layer_factory.hpp:77] Creating layer cls_prob
I1129 16:41:18.090708  6212 net.cpp:100] Creating Layer cls_prob
I1129 16:41:18.090710  6212 net.cpp:444] cls_prob <- cls_score
I1129 16:41:18.090714  6212 net.cpp:418] cls_prob -> cls_prob_pre
I1129 16:41:18.090922  6212 net.cpp:150] Setting up cls_prob
I1129 16:41:18.090927  6212 net.cpp:157] Top shape: 1 5 1 1 (5)
I1129 16:41:18.090929  6212 net.cpp:165] Memory required for data: 394568724
I1129 16:41:18.090931  6212 layer_factory.hpp:77] Creating layer cls_prob_reshape
I1129 16:41:18.090935  6212 net.cpp:100] Creating Layer cls_prob_reshape
I1129 16:41:18.090937  6212 net.cpp:444] cls_prob_reshape <- cls_prob_pre
I1129 16:41:18.090941  6212 net.cpp:418] cls_prob_reshape -> cls_prob
I1129 16:41:18.090966  6212 net.cpp:150] Setting up cls_prob_reshape
I1129 16:41:18.090970  6212 net.cpp:157] Top shape: 1 5 (5)
I1129 16:41:18.090971  6212 net.cpp:165] Memory required for data: 394568744
I1129 16:41:18.090973  6212 layer_factory.hpp:77] Creating layer bbox_pred_reshape
I1129 16:41:18.090976  6212 net.cpp:100] Creating Layer bbox_pred_reshape
I1129 16:41:18.090978  6212 net.cpp:444] bbox_pred_reshape <- bbox_pred_pre
I1129 16:41:18.090982  6212 net.cpp:418] bbox_pred_reshape -> bbox_pred
I1129 16:41:18.091008  6212 net.cpp:150] Setting up bbox_pred_reshape
I1129 16:41:18.091012  6212 net.cpp:157] Top shape: 1 8 (8)
I1129 16:41:18.091013  6212 net.cpp:165] Memory required for data: 394568776
I1129 16:41:18.091015  6212 net.cpp:228] bbox_pred_reshape does not need backward computation.
I1129 16:41:18.091017  6212 net.cpp:228] cls_prob_reshape does not need backward computation.
I1129 16:41:18.091018  6212 net.cpp:228] cls_prob does not need backward computation.
I1129 16:41:18.091020  6212 net.cpp:228] ave_bbox_pred_rois does not need backward computation.
…
